jupyter/learned_roofline/best_model.pt (torch, 202530 bytes, 11 tensors)

network.0.weight f4 [256, 7]
0	0x3eb8e227	0.3611004
1	0xbe848595	-0.25883165
2	0x3e0ffd0f	0.14061378
3	0xbd57b853	-0.05266602
4	0x3d243aad	0.04009502
5	0x3c554b65	0.013018464
6	0x3e978fa8	0.2960179
7	0x3d286845	0.041115064
8	0xbeb60d48	-0.35557008
9	0x3eb02abe	0.3440761
10	0xbe796349	-0.2435428
11	0x3e262dd9	0.16228427
12	0x3e80158c	0.2501644
13	0xbe8c1d7b	-0.27366242
14	0x3e6f0cb4	0.2334469
15	0xbe33ca75	-0.175577
16	0x3d3191ee	0.04335206
17	0xbce2e3c9	-0.027696507
18	0x3e7eaea7	0.24871312
19	0x3e610609	0.21974958
20	0xbda4ee39	-0.0805325
21	0xbeae5776	-0.34051102
22	0x3d92c98c	0.07167348
23	0x3dcb5340	0.09927988
24	0x3dcf3827	0.10118132
25	0x3e2931d1	0.1652291
26	0xbeaaaeca	-0.33336478
27	0xbebbcd88	-0.36680245
28	0x3e8aaf3a	0.27086812
29	0x3df86079	0.12127776
30	0x3e17037c	0.14747423
31	0xbe7a173b	-0.24422924
32	0xbeb3ab74	-0.35091746
33	0xbeb80cb9	-0.35947207
34	0xbe826f34	-0.25475466
35	0x3c5b3fab	0.013381879
36	0xbe69c3ec	-0.22828645
37	0x3c65e832	0.01403241
38	0xbdf8d94b	-0.1215082
39	0xbd2c221c	-0.042024717
40	0x3e36c442	0.17848304
41	0xbd9480dc	-0.072511405
42	0x3dd767ec	0.105178684
43	0x3de2871f	0.110609286
44	0x3dd37b6b	0.103262745
45	0x3e83ba33	0.25727996
46	0xbe718a5b	-0.23587935
47	0x3e5a8519	0.21339835
48	0x3da03fad	0.07824645
49	0x3dbe1605	0.09281544
50	0xbe0eee20	-0.13958025
51	0x3e9b2761	0.3030348
52	0xbdb8998c	-0.09013662
53	0x3e9dea39	0.3084276
54	0xbeb2fd0a	-0.34958678
55	0xbe40caa0	-0.18827295
56	0x3dbe7feb	0.09301742
57	0xbdd68bf4	-0.10475913
58	0xbe388379	-0.18018903
59	0xbcafd60b	-0.021464368
60	0xbeafbc9c	-0.34323585
61	0xbd822351	-0.06354392
62	0x3dc55537	0.09635394
63	0x3e5920bc	0.21203893
64	0x3e9690e5	0.2940742
65	0x3ea9bf1d	0.3315362
66	0x3d7921c2	0.06082321
67	0xbe909f85	-0.28246704
68	0xbe8d2234	-0.27565157
69	0x3e2bffd7	0.16796814
70	0x3e46967e	0.19393346
71	0x3d75e0bd	0.06002878
72	0x3f165e0a	0.5873724
73	0xbdf87ca2	-0.12133147
74	0x3c578127	0.013153351
75	0xbb7b6b49	-0.0038363507
76	0xbe0a479a	-0.13503876
77	0x3cf48072	0.029846404
78	0x3d8a8a87	0.06764703
79	0xbdcd72eb	-0.100316845
80	0x3c91401b	0.017730763
81	0xbe690118	-0.22754323
82	0x3ca30b74	0.019902922
83	0x3d417521	0.047230843
84	0x3e8c3f54	0.27392066
85	0x3d8ccdb6	0.06875174
86	0xbdd47f87	-0.103758864
87	0x3e6988c9	0.22806086
88	0xbbe9aa7e	-0.00713092
89	0xbbdfcfb4	-0.00683018
90	0xbbe1845e	-0.0068822345
91	0x3d59a503	0.053135883
92	0xbe7aa369	-0.24476399
93	0xbe2ba375	-0.16761573
94	0xbe0d3e42	-0.1379328
95	0xbdd008a1	-0.10157896
96	0x3e518bc1	0.20463468
97	0x3e3e1beb	0.18565337
98	0xbeb60dc3	-0.35557374
99	0x3e47d0a1	0.1951318
100	0x3e52c8a4	0.20584351
101	0xbed93f84	-0.4243127
102	0x3e10b933	0.14133148
103	0xbe5879f4	-0.21140271
104	0x3e8c7961	0.27436355
105	0xbebd4b2b	-0.3697141
106	0x3dee9c33	0.116508864
107	0xbc5df4b1	-0.0135471085
108	0xbdb88442	-0.09009601
109	0xbe4631f1	-0.19354989
110	0x3d322830	0.043495357
111	0x3e9ee936	0.310373
112	0x3e5b961e	0.21443984
113	0x3e1f5eeb	0.15563552
114	0xbe6075c1	-0.2191992
115	0xbc6b5067	-0.014362431
116	0x3ebc57c6	0.36785716
117	0xbe4f2f69	-0.2023293
118	0x3e845f4c	0.25853956
119	0x3e492dd8	0.19646394
120	0xbe83d0e2	-0.25745302
121	0xbe24953b	-0.16072552
122	0xbd6cf3d2	-0.057849713
123	0x3da433f8	0.08017725
124	0xbbc603b5	-0.0060429224
125	0xbc126bb1	-0.008936808
126	0xbd8f2619	-0.069896884
127	0xbd978523	-0.07398441
128	0x3d368fa9	0.0445706
129	0x3d276e20	0.040876508
130	0xbe9d3449	-0.30703953
131	0x3e8d1f9d	0.27563182
132	0x3ec4cf63	0.38439474
133	0x3e78725e	0.24262378
134	0x3e901f0e	0.28148693
135	0x3e47129b	0.19440691
136	0x3d8d208c	0.068909734
137	0xbe098a3c	-0.13431638
138	0xbe283205	-0.16425331
139	0x3ea64771	0.3247638
140	0x3eb7a93e	0.3587131
141	0x3da05e71	0.07830513
142	0xbe265153	-0.1624196
143	0x3e995b00	0.2995224
144	0x3e93651f	0.28788087
145	0x3c9f8c35	0.019476036
146	0xbd2546bf	-0.04035067
147	0x3e0062f3	0.12537746
148	0x3ea6fe09	0.32615688
149	0xbdabc9ff	-0.08388137
150	0x3d3b3527	0.045704987
151	0xbeb436fd	-0.35198203
152	0xbe9bf454	-0.30459845
153	0x3e1c2b6d	0.1525094
154	0xbe642c3d	-0.222825
155	0xbd8cbb27	-0.06871634
156	0x3e9b53d2	0.30337387
157	0xbeb588c1	-0.35455897
158	0x3eb6bb2c	0.35689676
159	0xbe7e173d	-0.24813552
160	0x3e228309	0.15870298
161	0xbe800cf6	-0.25009888
162	0x3d042c00	0.032268524
163	0x3e889633	0.26677093
164	0xbddf1aef	-0.10893809
165	0x3de1b1be	0.1102023
166	0xbe49ed5c	-0.19719452
167	0xbd55ea3c	-0.052225336
168	0x3e38bcd1	0.18040778
169	0xbeb345ef	-0.35014293
170	0xbdd31759	-0.103071876
171	0xbe8a7473	-0.2704197
172	0x3e75bc06	0.23997506
173	0xbea94fdc	-0.3306874
174	0xbc35f9fe	-0.011106966
175	0xbe772a0f	-0.24137138
176	0x3e8d9105	0.27649704
177	0x3e03aaa2	0.1285806
178	0x3eb7a239	0.35865954
179	0x3e98cea0	0.29845142
180	0x3eb8d421	0.36099342
181	0x3d9e0fc1	0.077178486
182	0xbe39a71c	-0.18130153
183	0xbddfcfed	-0.109283306
184	0x3d89bc28	0.06725341
185	0xbe4ec42a	-0.20192018
186	0x3ebba81b	0.36651692
187	0xbc5d6c81	-0.013514639
188	0x3d4a7f07	0.04943755
189	0xbe50c5db	-0.20387976
190	0x3db4759a	0.08811493
191	0xbdffe98a	-0.12495716
192	0x3eac2175	0.33619276
193	0x3e920be2	0.2852469
194	0xbde4fb23	-0.11180713
195	0xbd657149	-0.05601624
196	0x3cab8633	0.020938015
197	0x3e2502ae	0.16114303
198	0xbe822e72	-0.2542606
199	0x3ea24dfc	0.31700122
200	0x3d944132	0.072389975
201	0x3db9442e	0.09046207
202	0x3ec93525	0.3929836
203	0x3ea2392d	0.31684247
204	0xbd64c5ba	-0.05585263
205	0x3ea4c13b	0.32178673
206	0x3da3fc8c	0.08007154
207	0xbac1f23b	-0.0014796922
208	0x3e818f52	0.25304657
209	0xbdd1ac13	-0.10237899
210	0xbe80d8ac	-0.25165308
211	0xbe572463	-0.21009974
212	0x3ea86614	0.3289038
213	0xbebe70ae	-0.37195343
214	0xbdd89af2	-0.105764285
215	0x3bf34a00	0.007424593
216	0x3e848578	0.2588308
217	0x3d9d6214	0.076847225
218	0x3dca3161	0.098726995
219	0x3d9a15ce	0.0752369
220	0xbe30bf7c	-0.17260545
221	0x3e741e15	0.238396
222	0x3daed4fc	0.08536717
223	0x3e9d1d38	0.30686355
224	0xbea3c72c	-0.31987894
225	0xbee21903	-0.44159707
226	0xbe3df306	-0.18549737
227	0xbdec992f	-0.11552655
228	0x3d74a718	0.059729666
229	0xbd031efe	-0.03201198
230	0x3ca9de03	0.020735746
231	0x3e8e7081	0.2782021
232	0xbe90d500	-0.28287506
233	0x3e8ea9b6	0.27863854
234	0x3e9b3bbe	0.30319017
235	0xbce4a1d2	-0.027909193
236	0xbe800f2f	-0.25011584
237	0x3e942368	0.28933263
238	0x3eae1784	0.34002316
239	0xbe5c3dbc	-0.21507925
240	0x3e295f97	0.16540371
241	0x3e944dc7	0.2896559
242	0x3eb7f1d1	0.3592668
243	0x3e07aa17	0.13248478
244	0x3e819399	0.2530792
245	0x3c9b56ab	0.018962225
246	0xbe0fa464	-0.14027554
247	0xbb9e638e	-0.004833645
248	0xbe19c93e	-0.15018174
249	0x3e9a9581	0.30192187
250	0xbe8e25e0	-0.2776327
251	0xbde20575	-0.11036197
252	0x3cc47905	0.023983488
253	0x3ba7a7e6	0.0051164506
254	0xbbee7168	-0.0072767027
255	0xbe6e0474	-0.23243886

network.0.bias f4 [256]
0	0x3dcbff7b	0.099608384
1	0xbea975e6	-0.33097762
2	0xbe87e40f	-0.26541182
3	0xbe878f26	-0.264764
4	0xbec59883	-0.3859292
5	0xbe434060	-0.19067526
6	0xbd40cd62	-0.04707087
7	0xbc80e589	-0.01573445
8	0xbde06077	-0.10955899
9	0x3e1eb7c0	0.15499783
10	0x3d49f4c1	0.04930568
11	0xbe3ddfe2	-0.18542436
12	0xbd522492	-0.051304407
13	0xbeb91cac	-0.36154687
14	0xbd16df56	-0.036834083
15	0xbe1c1ca4	-0.152453
16	0xbdd42c85	-0.10360054
17	0xbe804d04	-0.25058758
18	0x3e1fb2a1	0.15595485
19	0xbeba428b	-0.36378893
20	0xbd74885e	-0.059700362
21	0xbe2193e3	-0.1577907
22	0xbeb0606c	-0.34448564
23	0x3e8dffd9	0.2773426
24	0x3e68f404	0.22749335
25	0xbe7b743f	-0.24556063
26	0xbd476ee4	-0.048689738
27	0x3db94a12	0.09047331
28	0x3e88a501	0.26688388
29	0xbebe3447	-0.3714926
30	0x3e5b7c69	0.21434177
31	0xbdbb895c	-0.091570586
32	0x3e2fa255	0.17151769
33	0x3ebe914f	0.37220237
34	0xbebcebef	-0.36898753
35	0x3e00bb35	0.12571414
36	0x3d9372f1	0.07199658
37	0xbeaca271	-0.33717683
38	0xbe45611b	-0.19275324
39	0xbe011a47	-0.1260768
40	0x3ebbc497	0.36673424
41	0xbe9a2fef	-0.30114695
42	0xbe8d12da	-0.27553445
43	0xbe0bbd6e	-0.1364648
44	0x3e760d61	0.24028541
45	0xbe31a543	-0.17348199
46	0xbe0dc12b	-0.13843219
47	0xbd4ee9a2	-0.05051578
48	0xbe298f59	-0.16558589
49	0x3d514906	0.05109503
50	0x3d74a2af	0.05972546
51	0xbdfee9c2	-0.124469295
52	0x3dc33f13	0.09533515
53	0xbe984324	-0.29738724
54	0xbe044392	-0.12916401
55	0xbe8aad46	-0.27085322
56	0xbe17282e	-0.14761421
57	0x3da6c16c	0.08142361
58	0x3d968203	0.073490165
59	0x3c84e482	0.016222242
60	0xbd67f074	-0.0566258
61	0x3e085c3b	0.13316433
62	0x3e86d1a3	0.26331815
63	0x3e009026	0.12554988
64	0xbe2d859c	-0.16945499
65	0xbaaf4953	-0.0013373293
66	0xbed31946	-0.4123022
67	0xbe837cac	-0.25681055
68	0x3ba4c573	0.0050284206
69	0x3c5ab783	0.013349417
70	0xbe9095d7	-0.2823932
71	0x3e6e4954	0.2327016
72	0x3e90b778	0.28264976
73	0xbc2bac6b	-0.010478119
74	0xbb06fb67	-0.0020596625
75	0xbe2f9527	-0.17146741
76	0xbe37cd79	-0.17949475
77	0xbe84f2d9	-0.25966528
78	0xba2e6dbb	-0.00066539244
79	0x3e8ff54c	0.28116834
80	0x3e8b633c	0.27224147
81	0xbd060e18	-0.032728285
82	0xbeaef31a	-0.34169847
83	0xbe0e0a40	-0.13871098
84	0x3e64736b	0.22309653
85	0x3dd0e65e	0.10200189
86	0x3e670206	0.22559366
87	0xbea20c7d	-0.31650153
88	0x3e4e2c94	0.20134193
89	0xbcf2b198	-0.029625699
90	0x3e900bce	0.28134006
91	0x3e550619	0.20803107
92	0xbeb5ce4c	-0.35508955
93	0x3e065f14	0.13122207
94	0xbe4654d8	-0.19368303
95	0xbdfe2142	-0.12408687
96	0xbdc453e2	-0.09586312
97	0xbdb22409	-0.086982794
98	0xbe995878	-0.2995031
99	0xbeb0d062	-0.34533983
100	0xbebea600	-0.37236023
101	0xbe41cd43	-0.18925957
102	0x3c401a1b	0.011724974
103	0xbc355bd6	-0.011069259
104	0x3d659c4e	0.056057267
105	0x3dc1abb4	0.09456578
106	0xbeaf7130	-0.34266043
107	0xbebf2c51	-0.37338498
108	0x3e0d8f0b	0.13824098
109	0xbe2c2483	-0.16810803
110	0x3cdaca5c	0.02670782
111	0xbec0b732	-0.37639767
112	0xbdd6c72e	-0.10487209
113	0xbd784782	-0.06061507
114	0x3e91da6d	0.28486958
115	0xbe885dce	-0.26634067
116	0xbe779617	-0.24178348
117	0xbd3f26e4	-0.04666795
118	0xbda6c2d1	-0.08142627
119	0xbad7461d	-0.0016424094
120	0x3b8601d2	0.0040895725
121	0x3db3ba63	0.08775785
122	0x3e662e00	0.22478485
123	0xbe8b1620	-0.27165318
124	0xbea71d11	-0.32639363
125	0xbd9116b6	-0.0708441
126	0x3e329d0f	0.17442726
127	0x3eaad53d	0.33365813
128	0xbe81872a	-0.25298434
129	0xbe8ffaff	-0.28121182
130	0x3b357680	0.002768904
131	0xbe5ad6be	-0.2137098
132	0x3e8c2a20	0.2737589
133	0xbdc16bd3	-0.09444394
134	0xbeb1cf49	-0.3472846
135	0x3e25ca7c	0.16190523
136	0x3e9b25ad	0.30302182
137	0xbcc9976a	-0.024608333
138	0x3eb51dbb	0.35374245
139	0x3e8b68a7	0.2722828
140	0x3df847da	0.121230796
141	0xbe80734e	-0.2508797
142	0x3e7a1865	0.24423368
143	0xbec8a832	-0.39190823
144	0xbe977957	-0.29584762
145	0xbd0ac0b4	-0.033875182
146	0xbd878498	-0.06617087
147	0x3c9215bb	0.017832628
148	0x3d1c4af6	0.038157426
149	0x3e70ffa4	0.23535019
150	0xbddb1266	-0.106968686
151	0x3e949dbe	0.29026598
152	0xbebfe2d1	-0.37477735
153	0xbd97a572	-0.07404603
154	0x3dc2ec5c	0.09517738
155	0xbd9439d3	-0.072375916
156	0xbe981e66	-0.29710692
157	0x3bbf484e	0.005837477
158	0x3e8759fc	0.2643584
159	0xbdfe5d24	-0.12420109
160	0xbe3bc3e4	-0.18336445
161	0xbe3515c4	-0.17684084
162	0xbedde20e	-0.4333653
163	0xbe34128a	-0.17585197
164	0x3d220822	0.039558537
165	0xbaf8670c	-0.0018951609
166	0xbdc80851	-0.09767211
167	0xbebbe26a	-0.36696178
168	0xbece99eb	-0.40351805
169	0xbe63329e	-0.22187278
170	0x3ea4571b	0.32097706
171	0x3de8df74	0.11370745
172	0xbe870867	-0.26373598
173	0x3e19f99d	0.15036626
174	0xbd1c84d0	-0.038212597
175	0xbec7d390	-0.39028597
176	0xbdffa956	-0.1248347
177	0x3e889b4b	0.2668098
178	0x3d985dfa	0.074397996
179	0xbe616489	-0.22011007
180	0x3ea472c8	0.3211882
181	0xbebd0fbf	-0.36926076
182	0xbe4daee8	-0.20086253
183	0x3e9228b0	0.28546667
184	0xbc5f518a	-0.01363028
185	0x3e3ae92b	0.18253009
186	0xbc984516	-0.01858763
187	0xbdead6e7	-0.114667706
188	0xbe1a96cc	-0.15096587
189	0xbdc48bc0	-0.09596968
190	0xbed534ca	-0.41641837
191	0xbea7bda8	-0.32761884
192	0xbdbf8e38	-0.09353298
193	0xbdd58461	-0.1042564
194	0x3e4f8866	0.20266876
195	0x3e27a16e	0.16370174
196	0x3e54a879	0.20767392
197	0x3dc3724b	0.09543284
198	0xbe905476	-0.2818944
199	0xbdad02a9	-0.08447773
200	0x3dbd48a6	0.09242372
201	0xbd1bc78f	-0.03803211
202	0xbf019c1a	-0.5062882
203	0xbd4ffe88	-0.05077985
204	0x3e76564f	0.24056362
205	0x3e00a588	0.12563145
206	0x3e52af97	0.20574795
207	0xbea5d0b1	-0.3238578
208	0xbe887b28	-0.2665646
209	0xbea2933b	-0.31752953
210	0xbda616bb	-0.08109804
211	0xbea820cb	-0.3283752
212	0xbdc62ab4	-0.09676114
213	0xbe28d1b2	-0.16486242
214	0xbe58f9d9	-0.2118906
215	0xbdc0f20f	-0.09421169
216	0x3dcc6137	0.0997948
217	0xbe54251e	-0.20717284
218	0xbed51bbc	-0.41622722
219	0xbe2d2e82	-0.16912273
220	0xbe7b459d	-0.24538274
221	0xbeb4d621	-0.35319617
222	0xbe7a2ac4	-0.24430376
223	0x3e485294	0.19562751
224	0x3e773202	0.2414017
225	0xbddc7647	-0.10764747
226	0x3ecf81e8	0.40528798
227	0x3e24d787	0.16097842
228	0xbd676742	-0.05649496
229	0xbe88560e	-0.26628155
230	0xbe1e9f2c	-0.15490407
231	0xbced2b08	-0.028951183
232	0x3c371f49	0.011176893
233	0xbe77a44e	-0.24183771
234	0xbe934d29	-0.28769806
235	0xbc42ffd6	-0.011901816
236	0x3ce74642	0.028231744
237	0xbecbe359	-0.3982189
238	0x3dd51889	0.1040507
239	0xbe7fc578	-0.24977672
240	0x3eb0f764	0.34563744
241	0xbeec3453	-0.4613367
242	0xbecf754f	-0.40519187
243	0x3e07e779	0.13271894
244	0x3dfda5e2	0.12385155
245	0xbed3868a	-0.41313583
246	0xbe6978d1	-0.22799994
247	0x3e85651b	0.260537
248	0x3d901be9	0.070365734
249	0xbe0e5243	-0.13898568
250	0xbd9daf8d	-0.07699499
251	0xbe96938d	-0.29409447
252	0xbe675b1b	-0.22593348
253	0x3df5adf3	0.11996069
254	0x3e01416d	0.12622614
255	0xbe90743d	-0.28213683

network.3.weight f4 [128, 256]
0	0x3a3d530a	0.00072221516
1	0xbd2f5669	-0.042807017
2	0xbc3a6ba5	-0.0113782035
3	0xbd1ffa78	-0.039057225
4	0xbc4b8097	-0.012420795
5	0x3bc18798	0.0059060566
6	0x3cb5a9c5	0.022175679
7	0xbda59b67	-0.08086281
8	0xbd54d9b6	-0.051965438
9	0xbcc4bedf	-0.024016796
10	0xbc6553ed	-0.01399706
11	0xbdb3811c	-0.0876486
12	0x3ba0ffb9	0.004913297
13	0xbd4d94f3	-0.050190877
14	0x3cd21602	0.02564526
15	0xbd3b2078	-0.04568526
16	0x3cdc5fb3	0.026901102
17	0xbd6c5d84	-0.05770637
18	0x3be9847a	0.007126388
19	0xbd45ff16	-0.048338972
20	0xbd02dfd4	-0.03195174
21	0xbcf311d8	-0.029671595
22	0xbcee5036	-0.029090982
23	0xbda2f961	-0.079577215
24	0xbb74ab22	-0.0037333448
25	0x3c8c3a78	0.017117724
26	0xbd8bf2ca	-0.06833418
27	0x3cb2eb46	0.021840703
28	0xbd94a60f	-0.07258236
29	0x3d50a6ba	0.050940253
30	0x3c7f891e	0.015596656
31	0xbd862338	-0.06549686
32	0xbd0c1114	-0.034195974
33	0x3ce9efa9	0.028556662
34	0xbd9063c0	-0.07050276
35	0x3d0b8d11	0.03407008
36	0x3cdbd6fa	0.026835907
37	0x3caa7774	0.020808913
38	0x3c8609d1	0.016362103
39	0xbcd98959	-0.02655475
40	0xbc451a7f	-0.012030243
41	0xbd11cb6d	-0.035594393
42	0xbda17714	-0.078840405
43	0xbd7856a5	-0.060629506
44	0xbda6f95b	-0.081530295
45	0xbd6c4976	-0.057687245
46	0xbca706d3	-0.020388996
47	0xbd93de7a	-0.072201684
48	0xbd88a14d	-0.06671391
49	0x3b849c5b	0.0040469593
50	0xbd7b4b83	-0.06135131
51	0x3d2258e2	0.039635547
52	0x3cb03e44	0.021514066
53	0xbd2cb2a8	-0.042162567
54	0x3d018e1f	0.031629678
55	0xbca67e72	-0.020323966
56	0x3c664c15	0.014056225
57	0xbbe6209b	-0.00702293
58	0xbdb56087	-0.08856302
59	0x3c08a1f9	0.008339399
60	0xbd27295d	-0.04081093
61	0xbd883ebe	-0.06652592
62	0xbc53727b	-0.012905712
63	0xbd05a006	-0.032623313
64	0xbd84f9cd	-0.06492958
65	0x3a94b1ea	0.0011344526
66	0x3c92f419	0.01793866
67	0xbd48da7a	-0.04903648
68	0xbdad7579	-0.08469672
69	0x3c2c91c3	0.010532799
70	0xbd88dfe5	-0.066833295
71	0xbd9c3bc0	-0.07628584
72	0xbd74c0ed	-0.0597543
73	0xbd98f35b	-0.07468291
74	0xbd858cb3	-0.06520977
75	0xbc6d8ac5	-0.014498417
76	0xbd962118	-0.07330531
77	0xbd1b0132	-0.037842937
78	0xbcdcc883	-0.02695108
79	0x3ca798d9	0.020458626
80	0xbda68565	-0.08130912
81	0xbda440eb	-0.080201946
82	0xbd1f158a	-0.0388389
83	0x3d2bb96e	0.041924886
84	0xbb3e58d7	-0.0029044652
85	0x3a8243ce	0.000993842
86	0xbd4f807e	-0.05065965
87	0xbcfb29d4	-0.030659594
88	0xbd6e3749	-0.058158193
89	0xbcb6817f	-0.022278545
90	0xbd9bcf43	-0.076078914
91	0x3a96495d	0.0011465956
92	0xbd721ad0	-0.0591076
93	0x3c8c7f9a	0.017150689
94	0xbcab1ac4	-0.020886786
95	0x3cd78f85	0.026313553
96	0x3d127f0a	0.035765685
97	0xbb4214c0	-0.0029614419
98	0xbd717ebc	-0.058958754
99	0xbd26c874	-0.04071851
100	0xbd7dd89e	-0.06197416
101	0x3d38563b	0.04500411
102	0x3d0ed295	0.034868795
103	0xb9c0ba6f	-0.00036759998
104	0xbdbba701	-0.09162713
105	0xbd598eef	-0.053114828
106	0xbd557a36	-0.052118503
107	0x3915d156	0.00014287731
108	0xbc09cb30	-0.00841026
109	0xbd0f72c2	-0.03502155
110	0xbc31ad62	-0.01084456
111	0xbb88f700	-0.0041798353
112	0xbdac70e0	-0.08419967
113	0xbca1197c	-0.019665472
114	0xbca0f79b	-0.019649317
115	0x3d1a81ae	0.03772133
116	0xbcdee2f4	-0.027207829
117	0x3ccc4513	0.02493528
118	0xbbba4278	-0.005684193
119	0xbd2b5ed5	-0.041838486
120	0xbdb418a7	-0.087937646
121	0xbd91e5f0	-0.07123935
122	0x39dec189	0.00042487335
123	0x3cf17f76	0.029479723
124	0xbd12405e	-0.035705917
125	0xbc1c47e8	-0.009538628
126	0xbd6afaae	-0.057367973
127	0xbc2f7c2f	-0.01071076
128	0xbc822e56	-0.015891235
129	0xbcdb280c	-0.026752494
130	0x3bce6fe1	0.006299958
131	0xbc8d01ed	-0.017212832
132	0xbda341c5	-0.07971529
133	0xbca53f31	-0.020171734
134	0xbc9f9c74	-0.019483782
135	0xbbf3dc14	-0.007442007
136	0xbd08e750	-0.03342372
137	0x3ccf52ab	0.025307974
138	0xbc986dac	-0.018606983
139	0xbcb0d415	-0.021585504
140	0xbc2fc1d4	-0.010727365
141	0xbd9b7efa	-0.07592578
142	0xbd55d702	-0.052207
143	0xbd9013a3	-0.070349954
144	0x3d7cee20	0.06175053
145	0x3d14ec11	0.036357943
146	0xbd562c49	-0.052288327
147	0xbcc0ac04	-0.023519523
148	0x3cf4ae68	0.02986832
149	0x3cffb24a	0.031212945
150	0xbd56a5cc	-0.05240421
151	0xbcb9c66d	-0.022677625
152	0xbd2e6ece	-0.04258614
153	0xbd9338d3	-0.07188573
154	0xbcceda7d	-0.025250668
155	0x3d1ec803	0.038764965
156	0xbd92941d	-0.071571566
157	0xbc7aff16	-0.015319606
158	0x3cdeb27f	0.027184723
159	0xbc97dbbe	-0.018537398
160	0xbd7eb9d7	-0.06218895
161	0xbcffb302	-0.031213287
162	0xbd055709	-0.032553706
163	0xbd086826	-0.03330245
164	0xbc5755f8	-0.013143055
165	0xbdb26f96	-0.087126896
166	0xbd89d4c3	-0.06730034
167	0xbd1aa62c	-0.03775613
168	0xbcfd3f30	-0.03091392
169	0xbb86d03d	-0.0041141794
170	0xbca75851	-0.020427855
171	0x3ca0582b	0.019573292
172	0xbcdd4d5f	-0.027014432
173	0xbda44da4	-0.08022621
174	0x3adee2d5	0.0017004857
175	0xbb5948e8	-0.0033155028
176	0x3c3c50c1	0.011493863
177	0xbd8b8f18	-0.06814402
178	0xbd059b12	-0.03261859
179	0xbd06c024	-0.032898083
180	0xbd88df90	-0.06683266
181	0x3c052cd8	0.008128367
182	0xbc5186b5	-0.012788464
183	0xbc3f7be3	-0.011687252
184	0xbc4bbf3f	-0.012435733
185	0x3b4f8afa	0.003166853
186	0xbd818968	-0.06325036
187	0xbd5bd875	-0.053673226
188	0xbcf02bb8	-0.029317722
189	0xbdb493ed	-0.08817277
190	0x3d00318f	0.031297263
191	0x3d04cf7f	0.032424446
192	0xbd6fa2f9	-0.058505032
193	0x3cf5c3ad	0.030000532
194	0xbd95869a	-0.07301064
195	0xbd76e88e	-0.060280375
196	0xbd523961	-0.051324252
197	0xbca06d36	-0.019583326
198	0xb94fefa6	-0.00019830334
199	0xbd885b4c	-0.066580385
200	0xbc20832b	-0.009796898
201	0x3d286964	0.041116133
202	0xbd7dd687	-0.061972167
203	0x3bf624e6	0.007511723
204	0x3c1f5637	0.009725145
205	0xbd275db0	-0.04086083
206	0x3d017289	0.03160337
207	0x3caf558a	0.021403093
208	0x3cf337bc	0.029689662
209	0xbb2e4bf4	-0.0026595565
210	0xbc157d66	-0.009124136
211	0x3c019b91	0.007910625
212	0xbdb1ca8f	-0.08681213
213	0x3a2366d4	0.0006233279
214	0x3ce449a3	0.027867144
215	0xbc67f240	-0.014156878
216	0xbda7153d	-0.08158348
217	0xbc7ade20	-0.015311748
218	0x3c800108	0.015625492
219	0xbd17b3b9	-0.03703663
220	0xbd05630a	-0.032565154
221	0x3bf6cec0	0.0075319707
222	0x3d0ff273	0.035143327
223	0x3bacb72b	0.0052708588
224	0xbbcae639	-0.0061919955
225	0x3cad571c	0.021159701
226	0xbdbcd727	-0.092207246
227	0xbd10740d	-0.035266925
228	0xbcfdb3d0	-0.03096953
229	0xbd38d245	-0.045122404
230	0x39e6df94	0.00044035597
231	0x3cdddf25	0.027083943
232	0x3d034c39	0.032055113
233	0x3ca23b78	0.019803748
234	0x3c6a0732	0.014283942
235	0xbd694484	-0.056950107
236	0xbdb0af49	-0.08627183
237	0xbd3ea380	-0.046542645
238	0xbd6e129d	-0.05812322
239	0xbce70b44	-0.028203614
240	0xbcb677b0	-0.022273868
241	0xbd9c2edf	-0.076261275
242	0xbdab9fb3	-0.083800696
243	0xbdad6c56	-0.08467929
244	0x3b56f24c	0.0032798229
245	0xbc685ca0	-0.01418224
246	0xbd0db6b1	-0.034598056
247	0xbc640582	-0.013917329
248	0xbdab9389	-0.083777495
249	0xbd71d942	-0.059045084
250	0xbd5a920d	-0.05336194
251	0xbd506e22	-0.05088628
252	0x3b95dc04	0.004573347
253	0x3c9c97f0	0.019115418
254	0x3c1bd5e1	0.009511442
255	0xbd0c0102	-0.03418065

network.3.bias f4 [128]
0	0xbd1cfda3	-0.038327824
1	0xbd8df519	-0.06931514
2	0xbc420a5b	-0.011843289
3	0xbe1fb3f1	-0.15595986
4	0xbe198845	-0.14993389
5	0xbbfbb3d0	-0.0076813474
6	0xbda3563e	-0.07975434
7	0xbcd7c5a8	-0.026339367
8	0xbd471b56	-0.048610054
9	0xbc7e6280	-0.015526414
10	0xbc16f749	-0.009214231
11	0xbd075967	-0.033044245
12	0xbde6e670	-0.11274421
13	0xbe2c62f8	-0.16834629
14	0x3eb9df60	0.36303234
15	0xbc7d2cc8	-0.015452571
16	0xbd5ac280	-0.053408146
17	0xbd3dbaec	-0.04632084
18	0xbd285d99	-0.041104887
19	0xbc7d5130	-0.015461251
20	0x3f1c5ce5	0.61079246
21	0xbd8be545	-0.06830839
22	0xbd1681bd	-0.03674482
23	0xbda9fe51	-0.0830046
24	0xbdfd9de0	-0.12383628
25	0xbd7ee14e	-0.062226586
26	0x3c075609	0.0082602585
27	0xbda0d485	-0.07853035
28	0xbd2f86a7	-0.042853024
29	0xbd6f741b	-0.058460336
30	0xbc957de4	-0.018248506
31	0x3e66468e	0.22487852
32	0xbc9ff447	-0.01952566
33	0xbe2843b7	-0.16432081
34	0xbd4088a9	-0.04700533
35	0xbd3bfc39	-0.045894835
36	0xbd294e88	-0.04133466
37	0xbd739388	-0.05946687
38	0xbd2e24c7	-0.042515542
39	0xbca82fee	-0.020530667
40	0xbdcdc085	-0.10046486
41	0xbb74a1e0	-0.003732793
42	0xbd17b764	-0.03704013
43	0xbc9a3f97	-0.01882915
44	0xbd89ba18	-0.06724948
45	0xbd240a4a	-0.040048875
46	0x3eaf5cce	0.34250492
47	0x3f14b212	0.58084214
48	0xbdb2e50a	-0.08735092
49	0xbc95d04f	-0.018287806
50	0xbdb887c6	-0.09010272
51	0xbdac00bc	-0.083985776
52	0xbd331fef	-0.043731626
53	0xbe54ddd3	-0.20787744
54	0xbd02c916	-0.03193005
55	0xbda13986	-0.078723
56	0xbd50dac8	-0.050989896
57	0xbc8cef08	-0.017203823
58	0xbd92eec1	-0.07174445
59	0xbcf13024	-0.0294419
60	0xbc83f91b	-0.016109994
61	0xbe0ca7f2	-0.13735941
62	0xbcf29364	-0.029611297
63	0xbc772c59	-0.015086257
64	0xbd3f384e	-0.046684556
65	0xbd704b4f	-0.05866557
66	0xbd8f25a3	-0.069896005
67	0xbb9e9d46	-0.004840526
68	0xbd85936c	-0.06522259
69	0x3dd51de1	0.104060896
70	0xbe28c0db	-0.16479819
71	0xbcd01b6f	-0.025403706
72	0xbd2be8fc	-0.041970238
73	0xbd971e31	-0.073788054
74	0x3bfe328f	0.007757492
75	0x3c23cb2e	0.009997172
76	0xbd629b30	-0.05532378
77	0xbe29424a	-0.16529194
78	0x3e13d3d3	0.14436273
79	0xbce637b1	-0.028102728
80	0xbdac7909	-0.08421523
81	0xbca8f315	-0.020623723
82	0xbd22f100	-0.039780617
83	0xbd532c50	-0.05155593
84	0xbe07beda	-0.13256398
85	0xbce01d6b	-0.027357778
86	0x3f09209a	0.5356537
87	0xbdee8b85	-0.11647705
88	0xbd81dacf	-0.063405626
89	0xbd075611	-0.033041064
90	0xbc9b908a	-0.01898982
91	0xbd79ec33	-0.061016273
92	0xbc265e80	-0.0101543665
93	0x3df647a4	0.12025383
94	0xbc6b9ed0	-0.014381126
95	0xbca2b782	-0.019862894
96	0xbd1da4d8	-0.038487285
97	0xbdc460b2	-0.09588756
98	0xbc9298cc	-0.017895125
99	0xbd4cf8fe	-0.050042145
100	0xbdb00a73	-0.08595743
101	0xbd1be506	-0.03806021
102	0xbcea2bd0	-0.028585345
103	0x3e291b7c	0.1651439
104	0xbd88edb3	-0.066859625
105	0xbd3f3c0a	-0.046688117
106	0xbcbf65be	-0.023363944
107	0xbcf56a80	-0.02995801
108	0xbcea0347	-0.028566016
109	0xbe2e014b	-0.1699268
110	0xbe103a05	-0.14084633
111	0xbca6580c	-0.020305656
112	0xbd010a06	-0.0315037
113	0xbd606199	-0.054780576
114	0xbc386ab0	-0.011255905
115	0xbe801776	-0.250179
116	0x3af5819a	0.0018730641
117	0xbd82b54b	-0.06382235
118	0xbc4fb7f7	-0.012678138
119	0xbd49dc4e	-0.049282365
120	0xbd2307fa	-0.03980253
121	0xbe2810b2	-0.16412619
122	0xbd917d2e	-0.07103954
123	0xbd99288d	-0.074784376
124	0xbd151dbe	-0.036405317
125	0xbd6a4abc	-0.05720018
126	0xbd437191	-0.047715727
127	0xbd2ca4ef	-0.04214948

network.6.weight f4 [64, 128]
0	0x3d96ef25	0.07369832
1	0xbd6d8dae	-0.057996444
2	0xbc682a16	-0.01417019
3	0xbd8af3ed	-0.067848064
4	0xbcd9eba8	-0.026601627
5	0x3d1697a4	0.03676571
6	0x3d312f2c	0.043257877
7	0xbd8c7c92	-0.068596974
8	0xbdd168d0	-0.102250695
9	0x3db179bc	0.08665797
10	0xbcd4468c	-0.025912546
11	0xbc8e4e13	-0.017371213
12	0x3c1a2b94	0.009409804
13	0xbdca8039	-0.09887738
14	0xbd4d3972	-0.050103612
15	0xba8b6c26	-0.0010637089
16	0x3d2c2a7e	0.04203271
17	0xbbb737f8	-0.005591389
18	0xbd9891a9	-0.074496575
19	0xbd1c8fe1	-0.03822315
20	0x3d496448	0.0491679
21	0xbd91bfc8	-0.071166575
22	0xbdd8df8d	-0.10589514
23	0xbd9d99b8	-0.07695335
24	0xbccae115	-0.02476553
25	0xbd7e6ebc	-0.062117323
26	0xbd422b2c	-0.047404453
27	0xbc00c361	-0.007859082
28	0xbc55c578	-0.0130475685
29	0x3d1cef2a	0.038314022
30	0xbd4d18ff	-0.050072666
31	0x3d4bfe7f	0.049803253
32	0xbbc00bf7	-0.0058608013
33	0xbd039860	-0.032127738
34	0xbd9f59c2	-0.07780792
35	0xbd5e15c2	-0.05421997
36	0x3d8d7d2a	0.06908639
37	0xbd527589	-0.05138162
38	0x3d9c4919	0.0763113
39	0x3d35f05c	0.044418678
40	0x3c3dacae	0.011576815
41	0xbd1056ef	-0.035239156
42	0x3d0bd8bf	0.034142252
43	0x3d90b3c4	0.070655376
44	0x3d5b2c67	0.053509142
45	0xbda94a1c	-0.08266088
46	0xbbc375bd	-0.005964963
47	0x3ca611d7	0.020272179
48	0xbd21b4c2	-0.039479025
49	0x3b99eada	0.004697186
50	0x3d824741	0.06361247
51	0x3dc05541	0.09391261
52	0x3d2f9815	0.042869646
53	0x3d2c0cfc	0.04200457
54	0x3cd945d3	0.026522553
55	0xbd4a76c0	-0.049429655
56	0xbd338163	-0.043824565
57	0x3b26a012	0.0025425
58	0xbd4bba54	-0.049738243
59	0xbda1fcda	-0.07909556
60	0xbd9340e4	-0.07190111
61	0xbdaf9c4f	-0.085747354
62	0xbc268adf	-0.010164945
63	0x3cfb7e41	0.030699851
64	0x3db2364a	0.08701761
65	0xbdbc496a	-0.0919369
66	0x3d6c46e8	0.05768481
67	0xbe3e0b79	-0.18559064
68	0xbb2f835a	-0.0026781172
69	0x3d4be987	0.049783256
70	0xbcc0b566	-0.023523998
71	0x3daa2926	0.0830863
72	0x3d521791	0.051292006
73	0xbcf4bee9	-0.02987619
74	0xbcce560e	-0.025187518
75	0xbcdf4ab2	-0.027257297
76	0xbb964a3a	-0.004586485
77	0x3d49b82c	0.049247906
78	0xbd499443	-0.04921366
79	0xbdb6937b	-0.089148484
80	0x3c95707f	0.018242119
81	0xbd7cff1f	-0.06176674
82	0x3da97787	0.08274751
83	0xbcad7b3b	-0.021176925
84	0xbd811e36	-0.063045904
85	0x3b125497	0.0022328252
86	0xbd469c20	-0.048488736
87	0x3dfb01c1	0.12256194
88	0xbd0b112a	-0.033951916
89	0x3cb9298a	0.022602815
90	0xbd61fa32	-0.055170245
91	0x3c57ff43	0.013183418
92	0xbb8751dc	-0.0041296314
93	0x3d9087e2	0.070571676
94	0xbe07bb72	-0.13255098
95	0x3d479c3f	0.048732992
96	0x3ccbb1bb	0.024865022
97	0xbca48b3b	-0.020085922
98	0x3d7e6626	0.062109135
99	0x3d72acd9	0.05924687
100	0xbd36684a	-0.04453305
101	0xbd913968	-0.070910275
102	0x3d6baee1	0.057539824
103	0xbca8673c	-0.020557038
104	0x3cc1631e	0.023606833
105	0xbc3fe329	-0.011711874
106	0x3dad22b4	0.08453885
107	0xbae964a1	-0.0017806479
108	0xbd8843fd	-0.06653593
109	0xbd0058b4	-0.031334594
110	0x3da1cfa4	0.079009324
111	0x3cc6c64a	0.024264473
112	0x3c6a56c3	0.014302912
113	0x3c1c2cf1	0.009532199
114	0x3c138960	0.009004921
115	0xbd83af16	-0.06429879
116	0x3c7f997d	0.015600559
117	0xbd2822f1	-0.041048948
118	0x3cb3f379	0.021966683
119	0x3d3db7a0	0.046317697
120	0x3cfef13d	0.03112089
121	0xbd659870	-0.05605358
122	0xbd27884a	-0.04090146
123	0xbc03a50c	-0.008034956
124	0x3d346ebb	0.044050913
125	0xbd0ef081	-0.03489733
126	0x3dab2af4	0.08357802
127	0xbd6959ce	-0.05697041
128	0xbd3caa8a	-0.046061076
129	0x3c79618a	0.015221009
130	0x3d897d40	0.06713343
131	0x3ba1854b	0.00492922
132	0xbd44d647	-0.048055913
133	0x3cf54208	0.029938713
134	0x3e911dcd	0.2834305
135	0x3b9b9d13	0.0047489493
136	0x3d1763e1	0.036960486
137	0x3d77749e	0.06041395
138	0xbd0d8a89	-0.034555946
139	0x3d7ad682	0.061239727
140	0x3cdd587f	0.027019737
141	0xbdb1ed0a	-0.0868779
142	0x3cb81dde	0.02247518
143	0xbdb4dc54	-0.08831087
144	0x3d363be4	0.04449071
145	0xbc94764d	-0.018122816
146	0x3bfd0853	0.0077219396
147	0x3d092863	0.03348578
148	0x3d918f74	0.0710744
149	0xbbd48e4d	-0.00648669
150	0xbe08db3f	-0.13364886
151	0xbbb1e5e3	-0.005429016
152	0x3b38c850	0.0028195567
153	0x3dcce416	0.100044414
154	0x3e9890f9	0.29798105
155	0xbcad4e40	-0.021155477
156	0x3c6b93da	0.014378512
157	0x3d3b560b	0.045736354
158	0xbced0be7	-0.02893634
159	0x3b10f30a	0.0022117519
160	0xbd7c605b	-0.06161533
161	0xbc196736	-0.009362986
162	0xbcdcfa63	-0.026974862
163	0x3d889b2e	0.06670223
164	0xbd3a9dd9	-0.04556069
165	0xbbf2cde1	-0.0074097966
166	0x3de27486	0.11057381
167	0x3d3e6922	0.04648698
168	0xbcc1f81d	-0.02367788
169	0xbd9058b0	-0.07048166
170	0xbce5b0ae	-0.028038349
171	0x3d62c5a0	0.05536425
172	0xbcaa97ef	-0.0208244
173	0xbdb6cd1f	-0.089258425
174	0xbed78b94	-0.42098677
175	0x3dcb76dd	0.09934781
176	0x3d57d59f	0.05269396
177	0x3d874e33	0.06606712
178	0x3c7b2d12	0.01533057
179	0xbbfed489	-0.007776801
180	0xbc50efcb	-0.012752484
181	0x3cf81878	0.030285105
182	0x3d185730	0.037192523
183	0xbd7c2a8d	-0.061564017
184	0xbd8c1f32	-0.068418875
185	0x3d809fc2	0.062804714
186	0x3d3b83dc	0.045780048
187	0x3dacee40	0.0844388
188	0xbdd31ed0	-0.103086114
189	0xbdc4fc19	-0.09618396
190	0xbc1cad58	-0.009562813
191	0xbd0fa614	-0.035070494
192	0x3d20fd3f	0.039304014
193	0x3d6c2a41	0.057657484
194	0x3db1d27f	0.08682727
195	0x3df37175	0.118868746
196	0x3cf5bf91	0.029998573
197	0x3db325fa	0.08747478
198	0x3c1ad6e5	0.009450649
199	0x3d97307a	0.07382293
200	0xbc279aad	-0.010229749
201	0x3d64932b	0.055804413
202	0xbcabf9c1	-0.020993115
203	0xbdf4605a	-0.1193244
204	0xbd01def2	-0.031706758
205	0xbb7a20b3	-0.0038166463
206	0xbda691b3	-0.08133259
207	0x3d7c83ea	0.06164924
208	0x3d8a7e4b	0.0676237
209	0x3d291cd0	0.041287243
210	0x3d7ab993	0.061212134
211	0x3d1f9fce	0.03897076
212	0x3d08bdc4	0.0333841
213	0xbde38fbc	-0.111113995
214	0x3df5f5e9	0.12009794
215	0x3d9f6b6f	0.07784163
216	0xbd1af684	-0.037832752
217	0xbd8fd14a	-0.070223406
218	0x3dd1c4d8	0.10242623
219	0xbd7fefc2	-0.06248451
220	0xbd2615a7	-0.040547993
221	0x3da46451	0.08026946
222	0xbdee76ef	-0.116437785
223	0xbd9ff5cb	-0.07810553
224	0x3d77a246	0.06045749
225	0xbc983c6e	-0.018583503
226	0xbcbe98c9	-0.023266213
227	0x3d9310ec	0.07180962
228	0x3d8eda7f	0.069752686
229	0x3db364df	0.08759474
230	0xbbc80673	-0.0061042844
231	0x3d961605	0.07328419
232	0xbadb93e0	-0.0016752444
233	0xbd88c18d	-0.06677542
234	0x3d48210f	0.048859652
235	0xbd3950a3	-0.045242917
236	0x3dabca0e	0.08388148
237	0x3cbcfaf7	0.023068888
238	0xbd8e2e3d	-0.06942413
239	0xbd90ec33	-0.070763014
240	0x3da79845	0.0818334
241	0xbd175216	-0.036943518
242	0x3cb88fa3	0.022529429
243	0xbd56ad39	-0.05241129
244	0x3c69aa8d	0.014261854
245	0x3aad1e05	0.0013207799
246	0x3cee1504	0.029062755
247	0xbd99dc87	-0.075127654
248	0xbc281268	-0.010258295
249	0xbdc67169	-0.096896
250	0x3ced6ce4	0.028982587
251	0xbd1c48eb	-0.038155477
252	0x3c369ffd	0.011146543
253	0xbbce9af4	-0.006305093
254	0xbc564150	-0.013077095
255	0xbd8d6af3	-0.069051646

network.6.bias f4 [64]
0	0xbe206f91	-0.15667559
1	0xbe47932b	-0.19489734
2	0xbdd55079	-0.104157396
3	0xbe325116	-0.17413744
4	0xbec19018	-0.37805247
5	0x3c1d2e35	0.009593536
6	0xbd7c7ddf	-0.061643478
7	0xbdace955	-0.08442942
8	0xbddeb07c	-0.108735055
9	0xbbe776e1	-0.007063732
10	0xbe2411d5	-0.16022427
11	0xbd806128	-0.06268531
12	0xbd0b76fc	-0.03404902
13	0xbd6f375a	-0.058402397
14	0x3cc94a6d	0.024571622
15	0xbeab3f5b	-0.33446774
16	0x3becd0fc	0.0072270613
17	0xbdb5fc45	-0.08886007
18	0x3e8caa9a	0.2747391
19	0xbdf7fb48	-0.12108475
20	0xbe9a140a	-0.30093414
21	0xbdd76004	-0.105163604
22	0xbe00d2b4	-0.12580377
23	0x3c49dbb1	0.012320445
24	0xbe43b788	-0.1911298
25	0xbd02f686	-0.031973384
26	0xbe2a2fe0	-0.16619825
27	0xbda5f8c4	-0.08104089
28	0xbdd885d0	-0.10572398
29	0xbde4cad0	-0.11171496
30	0xbd9c717e	-0.076388344
31	0xbd9f3a0f	-0.07774746
32	0xbe335429	-0.17512573
33	0x3bf58d2d	0.007493636
34	0x3cc5506b	0.024086198
35	0x3bf50ee9	0.007478584
36	0xbdfc5650	-0.1232115
37	0xbd6e6f8f	-0.05821186
38	0xbd38a172	-0.04507584
39	0xbdcbb5eb	-0.099468075
40	0xbddfe10f	-0.109315984
41	0xbd32753d	-0.04356884
42	0xbcd6a44b	-0.026201388
43	0x3e278c4f	0.16362117
44	0xbe6e4e66	-0.23272094
45	0xbe287960	-0.16452551
46	0xbe021ad2	-0.12705544
47	0xbdcd3f55	-0.10021845
48	0xbdea0b1a	-0.11427899
49	0xbe1f3fa4	-0.1555162
50	0x3bd298c2	0.0064269016
51	0xbd59353a	-0.053029276
52	0xbd314f00	-0.04328823
53	0xbced12fb	-0.028939715
54	0xbd8fc56f	-0.07020079
55	0xbdd5a771	-0.104323275
56	0x3bd7389b	0.006568027
57	0xbe2ea222	-0.17054036
58	0xbd897b65	-0.06712989
59	0xbd88f1e4	-0.06686762
60	0xbdde5543	-0.10856106
61	0xbd8d9097	-0.06912344
62	0xbd629dd7	-0.05532631
63	0xbdac1281	-0.08401967

network.9.weight f4 [64, 64]
0	0xbca5db6c	-0.02024623
1	0x3d924ba4	0.071433336
2	0xbca01b44	-0.019544251
3	0xbd4d907c	-0.05018662
4	0xbd3cc0d0	-0.046082318
5	0xbde29da2	-0.11065222
6	0xbce52002	-0.027969364
7	0xbdcdfa58	-0.10057515
8	0xbd232280	-0.039827824
9	0x3d9d0bb2	0.07668246
10	0xbe0b73cb	-0.1361839
11	0xbd5085c0	-0.050908804
12	0xbde5540c	-0.11197671
13	0x3d95a998	0.07307738
14	0x3ca80794	0.020511426
15	0xbd7d8408	-0.061893493
16	0xbd285684	-0.041098133
17	0x3d768a98	0.060190767
18	0x3b954bd4	0.0045561586
19	0x3ca4af4c	0.02010312
20	0xbd3e2aec	-0.046427652
21	0xbcc0a740	-0.023517251
22	0xbd0ff730	-0.035147846
23	0xbdad2924	-0.084551126
24	0x3dd00b22	0.101583734
25	0x3cec4294	0.02884034
26	0x3dd03d7a	0.10167976
27	0x3dd4c7d0	0.10389674
28	0xbdfbe176	-0.12298863
29	0xbdab634c	-0.08368549
30	0x3de7e6d8	0.11323327
31	0x3d815b90	0.06316292
32	0xbd90cae6	-0.0706995
33	0x3d88a280	0.066716194
34	0x3c65b6ec	0.014020663
35	0xbd982fd0	-0.074309945
36	0xbdab9c73	-0.0837945
37	0x3d968148	0.07348877
38	0xbbdd828a	-0.0067599462
39	0xbd9193b4	-0.0710825
40	0xbd3e387c	-0.046440586
41	0xbdc8ed58	-0.09810895
42	0xbd92504a	-0.0714422
43	0xbd63c120	-0.0556041
44	0xbd95fb15	-0.07323281
45	0x3d6f3c90	0.058407366
46	0x3daa5cb4	0.08318463
47	0xbdda8eee	-0.10671793
48	0x3da2afd0	0.0794369
49	0xbdf3ab44	-0.11897901
50	0x3d063e4c	0.032774255
51	0x3d971758	0.07377499
52	0xbcdbca3c	-0.026829831
53	0xbdad7ed8	-0.08471459
54	0xbdafe4e2	-0.08588578
55	0x3c3edaa4	0.011648808
56	0xbd8ac198	-0.06775206
57	0x3d845dd0	0.06463206
58	0x3df34ea2	0.118802324
59	0xbdbbcfbf	-0.09170484
60	0x3dd2941e	0.10282157
61	0x3d8f7a7e	0.070057854
62	0x3d119454	0.035541847
63	0xbd997d5a	-0.07494612
64	0x3d4c0f4f	0.049819287
65	0x3d4a4c1d	0.049388994
66	0x3d3d3774	0.046195462
67	0xbc53d51c	-0.012929227
68	0xbd9e1512	-0.077188626
69	0xbdbfe606	-0.09370045
70	0xbe239f59	-0.15978755
71	0xbe050362	-0.12989572
72	0x39865fc6	0.00025629828
73	0x3d4d6c4c	0.050152108
74	0x3d2a3881	0.041557793
75	0xbd7ae3a7	-0.061252262
76	0x3d5f7eb5	0.054564197
77	0x3da82ea7	0.08212023
78	0xb89c8107	-7.462693e-05
79	0xbe6616d4	-0.22469646
80	0x3c4b450a	0.012406597
81	0x3be5c8f3	0.0070124804
82	0x3ddc029f	0.107426874
83	0xbe039932	-0.12851408
84	0xbdbbccae	-0.09169899
85	0x3da76ad6	0.08174674
86	0x3bcabfed	0.00618743
87	0x3d94dc0c	0.07268533
88	0x396f5751	0.00022825344
89	0xbbf74ba8	-0.0075468607
90	0xbda61287	-0.081090026
91	0xbdad514f	-0.08462774
92	0x3cfef77c	0.03112387
93	0xbdb1f300	-0.08688927
94	0xbddffde2	-0.10937096
95	0xbd91b4af	-0.07114541
96	0x3da15bb2	0.078788176
97	0xbd376cfc	-0.04478167
98	0x3d4a76d5	0.049429733
99	0x3d87a193	0.06622615
100	0xbae4f5d3	-0.0017468281
101	0x3dbf7490	0.093484044
102	0x3ce09859	0.027416395
103	0x3cf8707f	0.03032708
104	0xbc4bac93	-0.012431282
105	0xbd693d36	-0.05694314
106	0x3d4ab3d3	0.0494879
107	0xbd2b4717	-0.041815843
108	0xbe29030e	-0.16505072
109	0xbc7a7bea	-0.0152883325
110	0x3cef14ac	0.029184662
111	0xbbbf5687	-0.0058391723
112	0x3d31ee97	0.043440428
113	0xbccf5065	-0.02530689
114	0xbd8300bf	-0.06396627
115	0xbd75a7d3	-0.059974503
116	0x3c1b29c9	0.009470412
117	0x3c32a5e8	0.010903813
118	0xbe0a2114	-0.13489181
119	0xbbaca5d4	-0.0052687917
120	0xbd893c00	-0.06700897
121	0x3dd836d2	0.10557331
122	0xba7656cb	-0.00093970884
123	0xbdbf38ce	-0.093370065
124	0x3de8f349	0.11374528
125	0x3d8241ca	0.063602045
126	0xbccf7095	-0.025322238
127	0x3d992d1e	0.074793085
128	0xbc93bfec	-0.018035851
129	0xbe0ea47c	-0.13929933
130	0xbdc76ea0	-0.09737897
131	0x3dde2c66	0.10848312
132	0xbd0c0436	-0.034183703
133	0xbdff2232	-0.12457694
134	0xbe1b007a	-0.151369
135	0xbd2d1ae2	-0.042261966
136	0xbd8e1181	-0.06936932
137	0xbdefcf92	-0.11709513
138	0x3c8406fe	0.016116615
139	0xbda4b3d6	-0.080421135
140	0x3d9944ca	0.074838236
141	0xbd1349b0	-0.035958946
142	0xbdabba0d	-0.08385096
143	0x3dc33fe4	0.095336705
144	0x3dc1b3e2	0.09458138
145	0x396cdd5c	0.00022589177
146	0xbdb33f5a	-0.08752318
147	0xbd3ebafe	-0.04656505
148	0xbd89a658	-0.06721181
149	0x3da17226	0.078831
150	0x3c1f7424	0.00973228
151	0xbd081c94	-0.03323038
152	0x3dd99458	0.106239974
153	0xbe205ce2	-0.15660432
154	0xbd8cf7e6	-0.068832204
155	0xbdb3a014	-0.08770767
156	0xbdb354ea	-0.087564304
157	0xbdba4cfc	-0.09096715
158	0x3da1a63e	0.07893036
159	0x3d86e39c	0.06586382
160	0xbd7b1d91	-0.061307494
161	0xbdbeb160	-0.09311175
162	0xbd8ea7a4	-0.06965569
163	0xbdd7e4c2	-0.10541679
164	0xbe1a682f	-0.15078805
165	0xbd23ecb8	-0.040020674
166	0xb94a9fd2	-0.00019323759
167	0xbdfb557a	-0.12272163
168	0xbd2fb657	-0.042898502
169	0x3df4a2ec	0.119451374
170	0x3d931716	0.07182138
171	0xbd57be24	-0.052671567
172	0x3d93cdc8	0.07216984
173	0xbdcb2a64	-0.09920195
174	0xbc83d588	-0.01609303
175	0xbdf23708	-0.11826903
176	0xbda2b062	-0.079437986
177	0x3d8bbbce	0.0682293
178	0xbd821e52	-0.063534394
179	0x3d9de3ca	0.07709463
180	0xbdebaae6	-0.11507206
181	0xbc0da2c0	-0.00864476
182	0xbd0e83cf	-0.03479367
183	0xbd90decd	-0.07073746
184	0xbc372fc8	-0.0111808255
185	0xbd8c16d6	-0.06840293
186	0xbdbf01ec	-0.093265384
187	0x3c479b90	0.012183085
188	0x3dbc998e	0.09208976
189	0xbc37a528	-0.01120881
190	0xbe0a3f5c	-0.13500732
191	0xbcb542e8	-0.02212663
192	0x3c87db58	0.016584083
193	0xbdefac9d	-0.11702845
194	0x3cb61428	0.022226408
195	0x3d975500	0.07389259
196	0x3d529d27	0.051419403
197	0xb9add365	-0.00033154633
198	0x3bda589b	0.0066633946
199	0x3dbf0c58	0.09328526
200	0x3d485095	0.048904974
201	0x3da6b258	0.08139485
202	0xbdd3feea	-0.103513554
203	0xbd65a634	-0.056066707
204	0xbdfc4982	-0.12318708
205	0x3cd603ab	0.026124796
206	0xbe1d211d	-0.15344663
207	0xbdfddad2	-0.12395252
208	0xbdd7c4c5	-0.10535578
209	0xbdd31200	-0.103061676
210	0x3d55f08a	0.05223135
211	0xbdb15811	-0.086593755
212	0xbd5f5093	-0.0545202
213	0x3d65b024	0.056076184
214	0xbd0055e1	-0.0313319
215	0x3d10c904	0.035347953
216	0x3bb8f1f7	0.005644079
217	0xbd482e66	-0.048872374
218	0xbda7a7c0	-0.08186293
219	0xbd16aad4	-0.03678401
220	0x3d479e90	0.0487352
221	0xbe1b94d9	-0.151935
222	0x3da983be	0.08277081
223	0x3d4b8825	0.049690384
224	0xbdaff906	-0.08592419
225	0xbcc51c67	-0.024061395
226	0xbd3d3c9f	-0.04620039
227	0xbe0aad3b	-0.13542645
228	0xbe05f305	-0.13080986
229	0x3dcf0c16	0.10109727
230	0xbda4c040	-0.08044481
231	0x3daa33a2	0.083106294
232	0xbd2e3578	-0.04253146
233	0xbdf78316	-0.120855495
234	0xbd201a3d	-0.039087523
235	0xbc6f3569	-0.014600136
236	0x3b91c371	0.0044483473
237	0x3d2a30a4	0.041550294
238	0x3cbc3c40	0.022977948
239	0xbd333165	-0.04374828
240	0xbd847f8f	-0.06469642
241	0xbca44bdc	-0.020055704
242	0xbe1cdeaf	-0.15319322
243	0x3dbb4eca	0.09145887
244	0x3da5b450	0.080910325
245	0xbdecb6a1	-0.11558271
246	0xbda14124	-0.07873753
247	0x3d0a8c46	0.03382518
248	0x3d3fffa1	0.046874646
249	0xbde93376	-0.113867685
250	0x3d293c88	0.041317493
251	0xbcd7cc95	-0.02634267
252	0xbc5536cc	-0.013013553
253	0x3d752a56	0.059854828
254	0xbe1d28de	-0.15347621
255	0xbdffaf90	-0.12484658

network.9.bias f4 [64]
0	0xbdc3a62d	-0.0955318
1	0xbd0ceb1e	-0.034403913
2	0xbe280de2	-0.16411546
3	0x3db0cd89	0.08632953
4	0x3b9010f2	0.0043965513
5	0xbdf46b7d	-0.11934564
6	0xbdff5b73	-0.124686144
7	0xbdd09762	-0.10185124
8	0xbcea5d99	-0.028609084
9	0xbbb9e098	-0.0056725256
10	0x3de2372c	0.110456795
11	0x3e19b8c8	0.15011895
12	0x3c8a72ea	0.016900498
13	0xbdced89d	-0.100999095
14	0xbd8bc3d4	-0.068244606
15	0xbd15105e	-0.036392562
16	0xbdd46e10	-0.10372555
17	0xbe1dcdab	-0.15410487
18	0xbd4a34d4	-0.049366787
19	0x3dbb8eb1	0.091580756
20	0xbcc68bbe	-0.024236556
21	0xbe90083b	-0.2813128
22	0x3ecaf47b	0.3963965
23	0xbe91a7dc	-0.2844838
24	0xbe2f560b	-0.17122667
25	0x3c7173c8	0.014737077
26	0xbe0c59e1	-0.13706161
27	0xbdcee9b2	-0.101031676
28	0x3a8884de	0.0010415574
29	0xbd81af9d	-0.06332324
30	0x3d83bb93	0.06432261
31	0xbdb7e9d2	-0.089801446
32	0xbe8399bc	-0.25703228
33	0xbda3f3f3	-0.08005514
34	0x3cfeec9a	0.03111868
35	0x3ccb16fe	0.024791237
36	0x3e01fb2b	0.12693469
37	0x3e85e3b2	0.2615028
38	0xbda2838e	-0.07935248
39	0xbdbec49f	-0.09314846
40	0xbd824aef	-0.06361949
41	0xbd84baa3	-0.06480911
42	0x3d8157eb	0.06315597
43	0xbe8288bf	-0.25494954
44	0xbd39967d	-0.045309532
45	0x3c61ac81	0.013774038
46	0xbdf6b47d	-0.12046144
47	0x3d27abbb	0.04093526
48	0x3d4f1717	0.05055913
49	0xbd07e88b	-0.033180755
50	0x3ebf0d94	0.37315047
51	0x3cc34fc8	0.023841754
52	0xbeada8c4	-0.3391782
53	0x3cc2532d	0.023721302
54	0xbd9c36a9	-0.07627613
55	0x3e45d5c8	0.19319832
56	0x3e80830c	0.2509998
57	0x3e6a8300	0.22901535
58	0xbdc5a8c9	-0.09651334
59	0xbe3595f7	-0.17732988
60	0xbc151f54	-0.0091017075
61	0xbb83d228	-0.0040228553
62	0xbe5e551b	-0.21712153
63	0x3d01d784	0.031699672

network.12.weight f4 [32, 64]
0	0xbc104eb4	-0.008807827
1	0xbca4be01	-0.020110132
2	0x3db577ec	0.08860764
3	0x3c2b44c4	0.010453407
4	0xbb855e4b	-0.0040700785
5	0x3c1139f4	0.008863915
6	0xbd6e8323	-0.05823053
7	0x3de7ee75	0.11324779
8	0xbd9079fa	-0.07054515
9	0x3db358f6	0.08757202
10	0xbd206587	-0.039159324
11	0x3d7662cc	0.060152814
12	0xbdf4031b	-0.11914655
13	0xbd3f64a5	-0.04672684
14	0x3e4f0249	0.20215715
15	0xbd55e95e	-0.05222451
16	0x3d86096e	0.06544767
17	0x3d9c1ab5	0.076222815
18	0x3dc72bb8	0.097251356
19	0xbd8dcf82	-0.069243446
20	0xbdb5fb65	-0.0888584
21	0x3e20886c	0.15677041
22	0xbe00b3b1	-0.12568547
23	0x3de50153	0.11181893
24	0xbd05d535	-0.032674033
25	0x3dd9f4b2	0.10642375
26	0x3d5841e1	0.052797202
27	0xbd78e70b	-0.060767215
28	0x3cf6de44	0.030135281
29	0x3bcf938f	0.006334729
30	0x3db7a209	0.08966453
31	0xbda478f4	-0.080308825
32	0xbd2185e0	-0.039434314
33	0xbcdfd491	-0.02732304
34	0x3e165854	0.14682132
35	0x3c1d1ef2	0.0095898975
36	0x3dcf0010	0.10107434
37	0x3e16b6d0	0.14718175
38	0x3df17218	0.1178934
39	0x3d8c0e35	0.06838647
40	0x3d928c46	0.07155661
41	0xbd84e5bd	-0.064891316
42	0xbef3fbf6	-0.47653168
43	0xbda00f96	-0.07815473
44	0x3dd34b4c	0.10317096
45	0x3d300904	0.042977348
46	0xbc3494a3	-0.011021766
47	0x3d05c810	0.032661498
48	0xbdbac2fe	-0.09119223
49	0x3ccfa988	0.025349393
50	0x3d7b318e	0.061326556
51	0xbae1defa	-0.001723259
52	0x3cef8f4f	0.02924314
53	0x3dc69ede	0.0969827
54	0x3d428786	0.047492526
55	0xbec10fa6	-0.3770725
56	0xbc18f61e	-0.009336023
57	0x3c2ad4a4	0.010426674
58	0x3d5ff599	0.05467758
59	0x3db444d9	0.08802194
60	0x3daba7fc	0.0838165
61	0x3e3dd590	0.18538499
62	0x3d33ebc0	0.043926
63	0x3ab35f18	0.0013684956
64	0xbd3d7984	-0.046258464
65	0xbddf0168	-0.1088894
66	0xbdf42272	-0.119206324
67	0xbd435d34	-0.047696307
68	0x3dcf20e0	0.10113692
69	0xbcd58864	-0.026066013
70	0xbde10302	-0.10986902
71	0x3c42ce78	0.011890046
72	0x3cabad4c	0.020956658
73	0x3df609ba	0.12013574
74	0xbe32b277	-0.17450891
75	0xbd9f5c3b	-0.077812634
76	0xbcc3f078	-0.023918375
77	0xbdbd485a	-0.092423156
78	0xbde1853c	-0.110117406
79	0xbe0eca36	-0.13944325
80	0xbd4db3c8	-0.05022028
81	0x3d9a4d98	0.07534331
82	0x3d138368	0.03601399
83	0x3da3724a	0.07980783
84	0xbc6423ac	-0.01392452
85	0xbd6656dc	-0.05623518
86	0xbe0563c6	-0.13026342
87	0x3d902058	0.07037419
88	0xbda55d74	-0.080744654
89	0x3dd1140a	0.102089
90	0x3d9a398a	0.07530506
91	0xbe6f5a93	-0.23374395
92	0xbd917f5e	-0.071043715
93	0xbd6c4368	-0.05768147
94	0xbdbd351e	-0.09238647
95	0xbd5c58ac	-0.0537955
96	0xbd38514c	-0.044999406
97	0xbdcb95e2	-0.09940697
98	0xbdf793ae	-0.120887145
99	0x3def5258	0.11685628
100	0xbdfd0220	-0.12353921
101	0xbd8b2305	-0.06793789
102	0xbd6fd2ef	-0.05855077
103	0xbdefd23f	-0.11710023
104	0xbd48d8a8	-0.049034745
105	0xbd190d98	-0.03736648
106	0xbdf9dbe6	-0.122001454
107	0x3dfd4012	0.12365736
108	0x3d8bc26c	0.068241924
109	0xbdee595a	-0.11638136
110	0x3cc2ff50	0.023803383
111	0xbe217f70	-0.1577127
112	0x3d4ead08	0.050457984
113	0xbd342544	-0.04398085
114	0xbd8362f4	-0.06415358
115	0xbdab86b6	-0.083753034
116	0x3d00cc6c	0.031444952
117	0xbdf47c74	-0.119378
118	0xbe81e58a	-0.25370437
119	0x3dac238c	0.084052175
120	0xbdb3d431	-0.08780707
121	0xbd07ff0c	-0.033202216
122	0xbd2e4e80	-0.042555332
123	0x3d9170d4	0.071015984
124	0xbd844e96	-0.064603016
125	0x3d614da8	0.0550057
126	0xbdb63e88	-0.08898646
127	0x3c8403e8	0.016115144
128	0xbc078c7c	-0.00827324
129	0x3ccfe1c7	0.025376214
130	0xbb6a109c	-0.0035715466
131	0xbc182dec	-0.009288292
132	0x3cc9ece5	0.024649093
133	0x3d40d505	0.04707815
134	0x3d76f82d	0.060295273
135	0xbc974918	-0.018467471
136	0xbe1debae	-0.15421936
137	0xbcffeca0	-0.031240761
138	0x3e80687f	0.25079724
139	0x3ca89337	0.02057801
140	0x3d2bae67	0.04191437
141	0x3d31aef9	0.043379758
142	0xbd0cafa4	-0.03434719
143	0xbcc58d59	-0.024115251
144	0x3bc6d0bd	0.006067364
145	0xbd84903c	-0.06472823
146	0x3bd3124f	0.0064413915
147	0x3d1e1649	0.03859547
148	0xbe1516c0	-0.1455946
149	0xbc51d877	-0.012807957
150	0xbd334e9b	-0.043776136
151	0xbd734d13	-0.059399676
152	0x3da3fbff	0.08007049
153	0x3d6265a1	0.055272702
154	0x3da2a6a5	0.07941941
155	0xbdce83ca	-0.100837305
156	0x3d3ab00c	0.045578048
157	0x3d1fef56	0.039046608
158	0x3dbd40ea	0.09240897
159	0xbdd8bf4e	-0.105833635
160	0xbaa15756	-0.0012309353
161	0x3d322e96	0.04350146
162	0xbe137c53	-0.14402895
163	0xbe0a21bb	-0.1348943
164	0xbe5c6f32	-0.21526793
165	0x3d4961ea	0.049165644
166	0xbdb98617	-0.09058779
167	0x3d3cec76	0.046123944
168	0xbcf509fe	-0.029911991
169	0xbe2b80df	-0.16748379
170	0x3e888e67	0.26671144
171	0xbd930ce5	-0.07180194
172	0xbc1d0ead	-0.0095860185
173	0xbddcec9e	-0.10787319
174	0xbdaca77e	-0.08430384
175	0xbca26be8	-0.019826844
176	0xbc36bfbb	-0.011154111
177	0x3d5f5a31	0.054529373
178	0xbe4de5ca	-0.20107189
179	0xbd7c6585	-0.061620254
180	0x3d1b261f	0.037878152
181	0x3c93a39b	0.01802235
182	0x3d4d5e2c	0.050138637
183	0xbde3d7f6	-0.11125176
184	0x3dd3a718	0.10334605
185	0xbbfc9771	-0.007708483
186	0xbe1c0636	-0.15236744
187	0xbd1c9c9a	-0.038235284
188	0xbd4c9480	-0.049946308
189	0xbd8f5b75	-0.06999866
190	0xbd771b2b	-0.060328644
191	0x3dbbf4ff	0.09177589
192	0xbcb91c27	-0.022596432
193	0x3c576ce7	0.013148523
194	0x3cb36b26	0.021901678
195	0x3d83375d	0.06407044
196	0x3da333d7	0.07968872
197	0x3d92eda9	0.07174236
198	0xbdadc2a8	-0.08484393
199	0x3dae8ae5	0.08522586
200	0xbc4eed56	-0.0126298275
201	0xbde077f0	-0.10960376
202	0xbeacf7fa	-0.3378294
203	0xbda9db91	-0.08293832
204	0x3de3c166	0.11120872
205	0xbdc2ba62	-0.09508206
206	0x3c8823a6	0.016618561
207	0x3ddf4d0f	0.1090337
208	0x3dace70c	0.08442506
209	0xbd241deb	-0.040067594
210	0xbc8b37b6	-0.016994338
211	0x3c849461	0.016184034
212	0x3dc7e8fd	0.09761236
213	0xbcb3f5b5	-0.021967748
214	0x3da16504	0.07880595
215	0x3d14638f	0.03622776
216	0x3db5fbb0	0.08885896
217	0xbd66103e	-0.056167834
218	0xbd84aa8e	-0.06477843
219	0x3e50b489	0.20381369
220	0xbcfed4da	-0.031107355
221	0x3d8a853f	0.06763696
222	0xbe24bb21	-0.16087009
223	0x3d1d5d00	0.03841877
224	0x3e076025	0.1322027
225	0x3c9292db	0.017892292
226	0xbdfec011	-0.124389775
227	0x3d3b23ae	0.045688324
228	0x3da66090	0.081238866
229	0xbebb9c3e	-0.3664264
230	0x3d5d64a3	0.054051053
231	0x3d87e06a	0.066346005
232	0x3cc960ec	0.024582349
233	0xbe14bfa8	-0.14526236
234	0xbe26e40b	-0.16297929
235	0x3c594575	0.013261189
236	0xbbcb13f4	-0.006197447
237	0x3d72a8bc	0.05924295
238	0xbd99733c	-0.07492682
239	0xbd3478ef	-0.044060644
240	0xbdcc9a9e	-0.099904284
241	0xbc5f0d66	-0.013614034
242	0xbc99a763	-0.018756574
243	0x3e1ae83d	0.15127654
244	0xbbf1f996	-0.0073844893
245	0xbca87c8c	-0.020567201
246	0x3daa103d	0.083038785
247	0x3dca2ac5	0.09871439
248	0xbe44df9e	-0.19225928
249	0xbdbf1157	-0.09329479
250	0xbd81830a	-0.06323822
251	0xbd3da98e	-0.046304278
252	0xbd820988	-0.06349474
253	0xbe1a9c3d	-0.15098663
254	0x3daabb39	0.08336491
255	0x3db4fff9	0.088378854

network.12.bias f4 [32]
0	0xbdc9e727	-0.09858542
1	0xbe1d1cc1	-0.15343
2	0xbe2be2fe	-0.1678581
3	0x3d8bdb6f	0.06828963
4	0xbe0a16b1	-0.13485219
5	0xbcce746e	-0.025202002
6	0xbd141c44	-0.03615977
7	0xbe0145e5	-0.12624319
8	0x3b7d4888	0.0038647968
9	0x3eea1844	0.45721638
10	0xbc3b00c6	-0.011413759
11	0xbdc61b41	-0.09673167
12	0x3c7adbf4	0.01531123
13	0xbe0de91a	-0.13858452
14	0xbe4650ba	-0.19366732
15	0xbdf22118	-0.118227184
16	0xbdb7c3d3	-0.089728974
17	0x3e365ae4	0.1780811
18	0x3d5b97ce	0.05361157
19	0x3e2e057c	0.1699428
20	0x3d4e8c89	0.050426994
21	0xbe0c925b	-0.13727705
22	0xbc732c6d	-0.014842135
23	0xbd312ff8	-0.043258637
24	0xbe1c51ca	-0.15265575
25	0xbdeaa5ae	-0.11457382
26	0xbdb222b3	-0.086980246
27	0x3e5fde80	0.21862221
28	0x3d874d83	0.06606581
29	0xbe1081bf	-0.14111994
30	0x3cd42041	0.025894286
31	0x3d12ce70	0.035841405

network.15.weight f4 [1, 32]
0	0x3cccef78	0.025016531
1	0x3dffeab2	0.124959365
2	0xb9bf7e4a	-0.00036524452
3	0x3c941d44	0.018080361
4	0x3dcd0a3a	0.10011716
5	0x3b69a7cb	0.003565299
6	0x3e202ac1	0.1564131
7	0xbda02e05	-0.078212775
8	0x3db54aa7	0.088521294
9	0xbe8c7e3b	-0.27440056
10	0x3bde67ee	0.0067872917
11	0xbc04feb2	-0.008117365
12	0x3dda17e2	0.106490865
13	0x3d0061ae	0.031343155
14	0x3ce88672	0.028384421
15	0xbdf4e907	-0.11958509
16	0x3c08925a	0.008335674
17	0xbe637141	-0.22211172
18	0x3db506bd	0.08839176
19	0xbdfd26c1	-0.12360907
20	0x3c025c25	0.007956539
21	0x3a3c4733	0.00071822404
22	0xbd23f27c	-0.040026173
23	0x3dbe650d	0.09296618
24	0xbde49008	-0.11160284
25	0x3cad4060	0.02114886
26	0xb9f064cb	-0.00045851464
27	0xbe0da649	-0.13832964
28	0xba3b19c5	-0.0007137324
29	0x3c9a3be9	0.018827396
30	0x3d16ab6e	0.03678458
31	0x3cf0e8c8	0.029407874
