jupyter/prediction/best_model.pt (torch, 213794 bytes, 11 tensors)

network.0.weight f4 [256, 18]
000000 ed f7 61 be d2 23 9e 3d c6 8e 2d bd 89 fb f3 bd
       -0.22067232 0.07721676 -0.042372487 -0.11913211
000010 19 28 3b 3e b8 e9 e8 3d f1 a5 5c 3d 07 da fd bd
       0.18277015 0.11372703 0.05386919 -0.12395101
000020 34 7b 67 be dc 36 66 bd 64 67 a3 3c 7e a3 e2 bd
       -0.22605592 -0.05620466 0.019946761 -0.1106634
000030 6f 2c 25 3e a9 89 32 3d 99 fd 56 be b7 27 74 3d
       0.16130231 0.043588314 -0.20995177 0.059608188
000040 ac aa 21 be d0 6f 59 bc 21 fc 52 3d 9a 17 c4 bd
       -0.15787762 -0.013271287 0.05150998 -0.09574814
000050 9b 50 c0 bd 36 fc 6e 3e 03 e8 96 bd 7c 16 b0 bc
       -0.09390374 0.23338398 -0.073684715 -0.021495096
000060 96 65 d1 bd d9 0b 5e 3d 13 9d 47 be f8 42 21 3e
       -0.10224454 0.054210518 -0.19493513 0.15748203
000070 60 54 63 3e 49 ce 23 3d 84 88 1b be 82 b9 c1 bd
       0.22200155 0.03999165 -0.15188795 -0.09459211
000080 9f 4c 60 be 77 65 5d be b1 bc 91 bd 76 85 28 3e
       -0.21904229 -0.21620737 -0.07116068 0.16457161
000090 98 bc 94 3d 5d c1 1c be 73 b1 66 3e e5 1b 7f bd
       0.07262534 -0.15308137 0.22528629 -0.06228246
0000a0 40 a2 ca bd ab 1c c4 bd 71 69 55 be df e6 8b bd
       -0.09894228 -0.095757805 -0.20841004 -0.068311445
0000b0 bd 11 2f bd 70 4b 7a 3c e9 c9 6d be ab 0b bc bd
       -0.042741526 0.015276775 -0.23221554 -0.09181913
0000c0 12 6c cb 3c ce 53 4f 3e 04 a0 0a be 0a d2 24 3e
       0.024831805 0.20246813 -0.13537604 0.16095749
0000d0 92 6b 05 3d 33 5d 60 3e db fd f6 3c 65 d9 66 3e
       0.03257329 0.21910553 0.030150345 0.22543867
0000e0 38 df 44 be 16 40 a3 bd 42 cd 1f 3e fd 77 d1 3d
       -0.19225776 -0.07971208 0.15605643 0.10227964
0000f0 c0 94 1d 3e a1 3f 10 be 95 3e 18 3e 92 d0 75 bd
       0.15388775 -0.14086773 0.14867623 -0.06001336
000100 32 ab 5f 3d dd 5b 7e bd 27 10 60 be c8 95 24 be
       0.054606624 -0.062099326 -0.21881162 -0.16072762
000110 79 69 c1 bd 27 04 04 3d 06 69 5c 3e 5b 33 5d 3e
       -0.094439454 0.032230522 0.21524438 0.21601622
000120 49 65 ab 3b 80 be 4b 3e 6e 3e 57 3e c8 90 a0 bc
       0.00523058 0.19896889 0.21019909 -0.019600287
000130 79 b9 a9 3d e4 8a 67 3e 93 0c 2b bd 34 c4 c5 3c
       0.08287329 0.22611576 -0.04176004 0.024141409
000140 21 4e 58 3e 36 16 3a bd 54 c9 4f be ae f4 35 3e
       0.21123554 -0.04543134 -0.20291644 0.17769119
000150 f9 e4 0c be 59 cb ba 3d 0b 81 02 3d 6e 4e e6 3d
       -0.13759221 0.09120817 0.031861346 0.11245428
000160 52 66 52 be b9 0e 26 be 28 3e 61 3e 34 2b 5a 3c
       -0.20546845 -0.16216554 0.21996367 0.0133159645
000170 6f 70 fc 3d e6 9e 76 bd 47 f0 f0 bd db ae 36 3e
       0.123261325 -0.06021013 -0.11764579 0.1784014
000180 af e0 2f 39 bd 03 5a 3d 62 80 b4 bb 3f ef 5b be
       0.00016773002 0.05322622 -0.0055084685 -0.21477984
000190 ed c3 6f 3e 42 7b 42 be 3e df b0 bd 46 f3 4d 3e
       0.23414584 -0.18992332 -0.0863633 0.20112333
0001a0 d3 69 3d be c6 15 8b 3d c7 d3 8b 3d 2e 0c eb 3d
       -0.184974 0.06791262 0.06827503 0.114769325
0001b0 3c b3 30 be 2f fc 01 be 77 21 13 be db 7b c8 3d
       -0.17255872 -0.12693857 -0.14368235 0.097892486
0001c0 3e 1e 99 bd ba 74 eb 3d ce 3e 46 be ec 89 6b 3e
       -0.07476471 0.11496873 -0.19359896 0.23001832
0001d0 ab 2a 15 3d a4 f1 c3 bc 27 d0 f2 bd b8 be 20 3e
       0.036417644 -0.023918934 -0.11856108 0.15697753
0001e0 a4 9f 33 be e6 f9 48 3e a0 e0 04 3d 63 55 45 3e
       -0.17541367 0.19626579 0.03244078 0.19270854
0001f0 f1 e2 7c 3d 51 7b 65 be 7f d0 a8 bd 7a 4e 7b bd
       0.061739866 -0.22410323 -0.082428925 -0.061354138
000200 d7 c5 29 be ad e1 f0 bd 2a a1 40 be 3a f5 82 3d
       -0.16579376 -0.11761794 -0.18811479 0.063944295
000210 ac 34 54 3d cf d3 40 be f1 ae 3f be cb 23 11 3d
       0.051808044 -0.18830799 -0.18719079 0.035434525
000220 e3 b7 78 3d 7d 45 84 3d 2f c7 84 bd 3a c7 70 be
       0.060722243 0.06458566 -0.06483304 -0.23513499
000230 63 48 9f 3d f8 75 84 3d 75 7e 2f bd d8 e9 0e 3e
       0.077774785 0.06467813 -0.04284521 0.13956392
000240 d0 be 4f be 0f e4 2a 3e 1e dc a8 3d 40 5a e1 bd
       -0.20287633 0.1668856 0.08245109 -0.11003542
000250 b1 f5 20 3e f0 d7 86 3d 5e 03 17 be 3b f5 47 3e
       0.15718724 0.065841556 -0.14747378 0.19527142
000260 c7 c7 62 3e a6 21 17 be 25 52 f4 bc 77 7c f6 bd
       0.22146522 -0.1475893 -0.029824326 -0.120354585
000270 67 cc 8b 3d cf 75 ee bd b6 dd 29 3e 05 7b 19 3e
       0.06826096 -0.11643564 0.16588482 0.14988334
000280 07 a9 a0 3d ad 71 32 bd 78 d7 51 3e 1d 27 01 3e
       0.078447394 -0.04356544 0.20492351 0.12612577
000290 b0 85 28 be f4 52 d9 3d 45 3e 6c 3d 51 4b 0c be
       -0.16457248 0.10611525 0.057676572 -0.13700606
0002a0 6a 62 5b be b3 6b f3 3d 39 90 df bd 69 89 28 3e
       -0.2142426 0.11885776 -0.1091618 0.16458668
0002b0 90 86 cc 3b 53 72 3a be f4 11 6a 3d d5 ac 34 be
       0.006241627 -0.18207674 0.057146028 -0.17644055
0002c0 76 4c 12 be d4 68 49 bd f0 be b7 bd 7a 39 08 3e
       -0.1428698 -0.049172238 -0.08971965 0.13303176
0002d0 82 78 80 3d f6 1e 35 3e 31 64 44 bd 58 45 6e 3e
       0.06272985 0.17687592 -0.047947112 0.2326864
0002e0 10 69 2e 3d f2 44 29 be 3b aa 4f 3e cb e2 07 be
       0.042580664 -0.16530207 0.20279782 -0.13270108
0002f0 b6 46 71 3e 49 1f e3 3c 7d d5 51 be 8e 47 80 be
       0.2356213 0.027724879 -0.20491596 -0.25054592
000300 16 71 f7 3d 00 b3 27 3e af f4 02 3d 82 66 39 3e
       0.12082116 0.16376877 0.03197163 0.1810551
000310 ba a9 8e bb b5 3b 51 bd 0b 96 64 be 9b 38 ea bd
       -0.004353729 -0.05108233 -0.22322862 -0.11436578
000320 92 1b 82 bc b4 85 f4 bd da c8 1f be a2 fe 2b 3e
       -0.015882287 -0.11939564 -0.15603963 0.16796353
000330 bf 3e 94 3d 8a 69 76 3e d1 25 a7 bd 57 5b 22 3e
       0.0723853 0.24063697 -0.0816151 0.15855156
000340 c0 35 90 3d e3 a9 a5 3d 59 52 c5 3d 1c 3a 96 bd
       0.07041502 0.08089044 0.09634847 -0.07335302
000350 ff 4c b9 3d 48 d7 10 bc 24 c6 75 3c de 1d db bd
       0.09047889 -0.00884039 0.015000854 -0.10699056
000360 f1 26 07 be 9b 56 9f bd 16 c9 e7 3d 1d a2 88 bc
       -0.13198449 -0.077801906 0.11317651 -0.016678864
000370 b1 a8 1a bd 56 a7 48 3e 37 21 ba 3d 53 b3 6b 3e
       -0.037758533 0.19595084 0.090883665 0.23017626
000380 76 2b 4c 3d cf 47 88 3d 25 88 56 bd 89 99 55 3e
       0.049846135 0.066543214 -0.05237593 0.2085935
000390 8c 36 c3 bd 8e f3 7a 3d 19 e2 62 3e ba 72 07 be
       -0.09531888 0.061267428 0.22156562 -0.13227358
0003a0 86 51 1c be ba 7d 3c be cf b0 ee bd 8e cc 6b 3d
       -0.15265474 -0.18407336 -0.11654817 0.057568125
0003b0 bd 5b 8f bd 3e 44 04 3e 43 6e 6b 3e 43 38 cc bd
       -0.069999196 0.12916657 0.2299128 -0.099716686
0003c0 63 20 49 3e 88 74 fa bd 48 62 e3 bc 46 02 1b be
       0.19641261 -0.12229258 -0.027756825 -0.15137586
0003d0 cf 6a 00 3e bd 77 3e 3e 67 29 41 bc b4 13 0f bd
       0.12540744 0.18600364 -0.011789656 -0.0349309
0003e0 70 e6 44 be 12 5a 03 3e e6 95 54 bc a2 0d 6f 3a
       -0.1922853 0.12827328 -0.012975192 0.0009119158
0003f0 8e 88 41 be 5b a4 e2 bd 31 de 4f 3e 5a 3c ec bd
       -0.18899748 -0.110665046 0.20299603 -0.11534949

network.0.bias f4 [256]
000000 b4 ca df 3d ca 5e 3b be cf e6 0a be 8e 9b 57 bd
       0.109273344 -0.18297878 -0.13564609 -0.052638583
000010 1c dc a9 3c 95 86 1e 3e c3 0c 1d 3d 3f 54 65 be
       0.02073484 0.15481026 0.03834225 -0.22395419
000020 4e de 82 3e 7b a2 4a be a1 14 bd bd 0c 25 16 be
       0.2556023 -0.19788544 -0.0923245 -0.1466257
000030 56 11 71 3e d1 db 8d 3d e6 10 f7 3d 72 13 0f 3e
       0.2354177 0.06926692 0.1206377 0.13972262
000040 29 f3 5e 3e 42 e3 5c 3e 46 e2 92 bc ad 22 45 3c
       0.21772446 0.21571067 -0.017930161 0.012032193
000050 83 0b 11 3e 44 fc 86 3b 74 a1 9f 3c ae d8 0a 3e
       0.14164548 0.004119428 0.019486167 0.13559219
000060 cf 83 f0 bd 5f 84 82 3e 28 1d 5a be 2d c1 83 3e
       -0.117438905 0.25491616 -0.21300185 0.2573332
000070 59 ab 47 bd 1f 1a 3d be 56 90 50 be bd 49 8d bc
       -0.048747394 -0.18466996 -0.2036756 -0.017247075
000080 a8 7e da 3d 16 25 b2 bd cc f4 ac bd c6 70 e1 bd
       0.10668689 -0.0869848 -0.08445129 -0.11007838
000090 e8 03 ac 3d 1d 0f 5b 3e 99 dd e0 bc 1d 43 3e 3d
       0.083991826 0.21392484 -0.027449416 0.046450723
0000a0 1b 94 3a bd 91 02 03 3b 35 75 dc bd 16 fd 33 bd
       -0.0455514 0.0019990543 -0.10764543 -0.043942533
0000b0 9a 99 f7 3d 40 a7 46 be c7 e1 f5 3c c7 4e 4b be
       0.12089844 -0.19399738 0.030014886 -0.1985427
0000c0 ba 13 7f 3d 8c 9b 14 bd 9a 52 73 be 9a 64 5a 3d
       0.062274672 -0.036281154 -0.23761979 0.053318597
0000d0 7e d5 1c be a5 71 a1 3c 9a 93 7f 3d e7 da ee bd
       -0.15315816 0.01970751 0.062396623 -0.11662846
0000e0 4e b5 26 3e bd aa 8c bd 55 cc a0 3d 14 d5 77 3e
       0.162801 -0.06868503 0.07851473 0.24202377
0000f0 a2 9d 2c 3e a1 1b ae bd ec 0e 12 bd 2e 7b 17 be
       0.16857007 -0.085013635 -0.03565876 -0.14793083
000100 d5 b9 87 3c 92 e2 2b 3d ac 10 07 bd e9 01 5f be
       0.016568104 0.04196412 -0.032974884 -0.21778072
000110 05 69 84 3e 2d 15 e4 3d 32 5d 55 3e 9c 40 df bd
       0.25861374 0.111368515 0.20836332 -0.10900995
000120 4e bc 8a 3c 46 df 23 be f5 de e7 3c df ad c2 bd
       0.016935494 -0.16003141 0.028304556 -0.095058195
000130 de fe de 3d be 1c 0e 3e 96 40 b6 bb f8 1e 25 be
       0.10888456 0.13878152 -0.0055618985 -0.16125095
000140 74 ae dc 3d 84 56 ec bd 06 6c 2c 3e 71 7e 5a 3e
       0.10775462 -0.11539939 0.16838083 0.21337296
000150 ca 40 54 3e b5 88 eb 3d b5 e7 fa bd 01 78 bd 3d
       0.2072784 0.11500684 -0.12251226 0.092514046
000160 b0 5a 1a 3e c8 f5 56 3e 9d 26 3e be 17 f3 a7 bd
       0.15073657 0.20992196 -0.18569417 -0.082006626
000170 5c 78 d0 bd ae ad 11 be bb d5 08 3e 95 24 06 3e
       -0.10179207 -0.1422641 0.13362782 0.13099892
000180 d7 cb 2b 3e e3 9a 54 3e ee c9 07 be 06 70 72 3e
       0.16776977 0.2076221 -0.13260624 0.23675546
000190 57 ab 51 be 8b ed 3c be d4 81 32 bd 1b 25 3b be
       -0.20475517 -0.1844999 -0.043580845 -0.18275873
0001a0 af 94 27 be 50 dc 19 be 31 cc 01 3e ab 56 48 3e
       -0.16365312 -0.15025449 0.12675549 0.19564311
0001b0 20 91 ac bd fe d7 c3 bd 93 a5 17 be 96 54 de 3c
       -0.08426118 -0.095626816 -0.14809255 0.027139943
0001c0 fe f1 3b 3e 6e 23 f3 3d f6 dc 04 be 1b da db bc
       0.18354031 0.11871992 -0.12974915 -0.0268374
0001d0 58 74 08 3e d5 29 59 be f6 70 4c bd e1 b9 8c 3b
       0.13325632 -0.21207364 -0.049912415 0.0042946194
0001e0 8e ec e7 bd 0b 67 7d bd 59 fd 23 be ec 10 6d be
       -0.11324416 -0.061865848 -0.16014613 -0.23150986
0001f0 d8 af 74 3e c1 f8 df bd a2 66 7b 3d fc 4c 18 be
       0.23895204 -0.10936118 0.061377175 -0.14873117
000200 ef 38 9e bd 61 ed 64 3e d0 cc 4a be ec c0 f6 3d
       -0.07725703 0.22356178 -0.19804692 0.12048516
000210 bd 0f a4 bd e5 cf 2b 3e 73 d3 01 be 5b ea 19 be
       -0.08010814 0.16778524 -0.12678318 -0.15030806
000220 44 6b 58 be 16 26 9d 3d 2b 0d fa 3d 55 b4 44 3b
       -0.21134669 0.0767328 0.12209543 0.0030014713
000230 fd 94 85 3b cb 8a 41 be a9 99 c1 3d 59 b2 1d be
       0.0040765987 -0.18900602 0.094531365 -0.15400065
000240 79 df 56 bc 14 17 d5 3d e3 71 6c 3e e7 5a d5 bd
       -0.0131148035 0.104047924 0.2309032 -0.10417729
000250 05 c1 b1 3c 6a c6 d7 bd 46 f0 69 bc b7 41 13 be
       0.021698484 -0.10535891 -0.014278477 -0.14380537
000260 86 41 4f 3e d9 9d 74 3e 62 29 05 be 5f ee 56 3e
       0.20239839 0.23888339 -0.13004068 0.20989369
000270 dc 98 ed bd 5a 33 2a be dd 5e a0 bd fa 73 d8 bd
       -0.11601421 -0.16621152 -0.07830594 -0.10568996
000280 87 be 6f 3e 0c 0e 71 bc 9e 30 0d 3e d0 c0 9b 3d
       0.23412524 -0.014712822 0.13788077 0.076051354
000290 15 5a d0 3d 0a e2 66 bd 59 91 48 be 9c 73 be 3d
       0.10173432 -0.05636791 -0.19586696 0.092993945
0002a0 3a 71 21 3d 5c 1e 1d be 11 d7 47 3e 1b ff f0 3d
       0.039414622 -0.15343612 0.19515635 0.117674075
0002b0 21 5e 8d bd fc 59 40 be 75 e7 d8 3c c7 39 87 3e
       -0.06902719 -0.18784326 0.026477555 0.26411268
0002c0 8e 67 3a be 32 b3 51 3d 8d b3 45 be 23 f2 b5 bd
       -0.18203565 0.051196285 -0.19306774 -0.088840745
0002d0 5c d1 38 be 49 42 82 bc d4 a5 65 3e fd b9 3e 3e
       -0.18048614 -0.015900748 0.2242654 0.18625636
0002e0 7c da 2f 3e ff a4 20 3e fd 04 0c be 6a 85 57 3d
       0.17173189 0.15687941 -0.13673778 0.052617468
0002f0 18 36 4f 3e 9d c5 b4 3d 81 0e 55 be ff 88 4a 3e
       0.20235479 0.08826754 -0.20806314 0.19778822
000300 7c 23 9d 3d 09 4b 1b be 4f bb a9 3d 0a d1 98 bd
       0.07672784 -0.15165342 0.082876794 -0.07461746
000310 c7 f3 46 bd e0 e8 1f bc 2d c0 68 bb 9b ee 35 be
       -0.048572328 -0.009760112 -0.0035514936 -0.17766802
000320 f1 2c a5 bd 7e 85 01 3e 3e a0 6e 3d eb 97 35 be
       -0.080652125 0.1264858 0.058258288 -0.17733733
000330 88 d6 a2 3d 57 cc 7a 3e f1 9b 45 bd 1f e5 18 be
       0.07951075 0.24492012 -0.04824442 -0.14931153
000340 e8 73 21 3d 0f ec 45 3e c0 75 81 bd e9 27 0c 3e
       0.039417177 0.1932833 -0.06321287 0.136871
000350 7a 92 56 3e 1e 3e 21 be 9f a2 ac 3d a6 c0 aa bd
       0.20954314 -0.15746352 0.08429455 -0.08337526
000360 08 73 eb 3d d7 c7 c7 bd c2 7f 01 3e d5 bd f4 3d
       0.1149655 -0.09754913 0.12646392 0.1195027
000370 ab 1e 19 be 13 52 46 3d 46 d6 c8 3d dd 94 ce 3d
       -0.14953105 0.048418116 0.098064944 0.10086987
000380 6f 8d a8 3d fc 6e 93 3d a8 fa cd bc ad ab 00 3e
       0.08230101 0.07198903 -0.025143936 0.12565489
000390 b5 a4 88 3d 04 09 7a 3e cc dd e7 bd 99 71 a5 3c
       0.066720404 0.24417502 -0.11321601 0.02019577
0003a0 4e 0d c3 bd 84 d5 7e 3e 48 2c 2d 3e 7f 2e ea 3d
       -0.09524022 0.24886137 0.16911423 0.1143465
0003b0 f5 d0 5f 3e 17 03 c4 bd a5 9a 79 bc 85 e0 5b 3e
       0.21857055 -0.09570902 -0.015234624 0.21472366
0003c0 ca a6 1c 3e d9 71 fa 3d 81 11 41 be 44 cd f7 3d
       0.15298 0.12228746 -0.18854333 0.12099698
0003d0 8f e8 4a 3e b7 7c 72 bd 06 c6 f4 bd 4a ff 70 bd
       0.19815277 -0.05920097 -0.119518325 -0.058837213
0003e0 fe ff 48 be 5f 3c f7 3c df 38 e2 bd c4 0a 0c 3e
       -0.19628903 0.030180154 -0.110460036 0.13675982
0003f0 66 e5 fb bd 3b d0 03 3d dd 7a 2c be e5 21 1d 3c
       -0.12299614 0.032181006 -0.16843744 0.009590601

network.3.weight f4 [128, 256]
000000 f8 a4 b2 3b 3c d1 e9 bc 6e a8 37 3d 5e 89 2a 3d
       0.0054517947 -0.028542154 0.04483836 0.04163491
000010 30 86 19 3d c4 ca e9 3c 25 ba 13 3d 38 07 8a 3c
       0.037481487 0.028539069 0.036066193 0.016849145
000020 69 25 98 3d da 6c 4d bd 56 4b 7d 3d 77 81 da ba
       0.074290104 -0.050152637 0.061839424 -0.0016670664
000030 09 d4 62 3d 42 bc 50 3d 30 8e bb bc af 81 27 3d
       0.055377994 0.050960787 -0.022894949 0.04089516
000040 14 1c 4a 3d 05 f8 2b 3d cf ec 55 3c f6 9d 4b bc
       0.049343184 0.041984577 0.013056948 -0.012427798
000050 df 7d 67 3c b0 00 0f bc ce ea 5c 3d 51 e9 30 bd
       0.014129131 -0.008728191 0.053934865 -0.043191258
000060 79 3a 08 bc 86 21 49 bb bc 59 58 bd 76 97 a0 3d
       -0.008314722 -0.0030690148 -0.052819952 0.07841389
000070 80 0b 41 bb 80 57 4e 3d ac 13 d3 bc dc d1 9c bc
       -0.0029456317 0.050376415 -0.025766216 -0.019143037
000080 28 b4 98 3b 75 e2 6d bc ff dc c1 bc f8 1d 91 3c
       0.004660148 -0.014519324 -0.02366495 0.017714486
000090 cf 11 8b bc be c5 79 3d 57 85 20 bd e1 ba a6 3d
       -0.016976265 0.060979597 -0.039189663 0.08141113
0000a0 14 ae 35 bd 89 52 31 bc 1c aa 98 3d 17 ec 8c bc
       -0.044355467 -0.010822901 0.07454321 -0.01720242
0000b0 2f 91 11 3d a6 34 77 3d a5 19 22 3d 66 65 45 3d
       0.03553885 0.060352944 0.039575238 0.048192404
0000c0 63 16 4b ba 99 98 18 bd ce c2 81 bb 43 79 8e 3d
       -0.00077471713 -0.037254903 -0.00395999 0.069567226
0000d0 70 e7 83 3c 10 d6 75 3d 14 f0 f2 3c 87 28 2b 3b
       0.016101569 0.0600186 0.029655494 0.0026116685
0000e0 1c 51 02 3c 36 e2 3d bd fe 44 f5 bb f5 07 82 3d
       0.007953908 -0.04635831 -0.007485031 0.06349174
0000f0 4d 18 a5 3b 23 27 cc bc fe e1 96 bc 18 59 b6 3c
       0.0050382973 -0.024921006 -0.018418308 0.02225928
000100 8a ff d2 bb 34 31 3d 3d 83 c1 b8 3d a7 b3 84 3d
       -0.006439154 0.046189502 0.090212844 0.064795785
000110 70 47 96 bc c9 63 b6 3d 36 d7 0f bc a7 9b 97 3c
       -0.01834461 0.08905751 -0.008779338 0.018506838
000120 3a d7 b5 3d 43 d6 e5 bc c7 9e 1d 3d 1d 00 41 ba
       0.08878942 -0.02805627 0.0384815 -0.00073623826
000130 f0 69 04 bd 32 5e 16 3c a9 9b 67 3d ca 2a 90 3c
       -0.032327592 0.009177731 0.056544933 0.017598528
000140 72 b5 42 3d 88 e3 16 3c dd bc 15 bd 6c 28 89 3b
       0.04753632 0.009209521 -0.036557067 0.004185727
000150 e7 95 ce 3c 13 16 d0 3c 17 96 2f 3c 73 d0 1c 3d
       0.025217963 0.02540115 0.010716937 0.03828473
000160 a5 18 da bc d9 71 8f 3c 90 91 61 3d 02 a7 04 bd
       -0.02662308 0.017510341 0.05507046 -0.032385834
000170 b2 76 7f 3c b0 ef bd 3b 85 70 11 3c 0c 82 c0 bc
       0.015592264 0.0057963952 0.008876924 -0.023499511
000180 a2 48 33 3c 7c 6d 67 3d e0 5f 07 3b b0 54 fc 3c
       0.01094261 0.056500897 0.0020656511 0.0308021
000190 82 96 68 3d 38 62 71 bd f6 e2 28 3d a8 28 da bc
       0.05678416 -0.05893156 0.04123207 -0.026630715
0001a0 4c c8 3d bd f2 de 7a 3d a7 dd 09 bd 80 a1 a1 3d
       -0.046333596 0.061247773 -0.03365865 0.07892132
0001b0 99 62 62 3d 30 cd 6c bd e2 fd 4f 3c 44 61 4a 3d
       0.05526981 -0.05781287 0.012694808 0.049409166
0001c0 dd 3a 95 3d 27 1f d1 3b 50 53 8b 3c 8b 78 bd bb
       0.07286618 0.0063818875 0.0170075 -0.005782192
0001d0 19 74 33 bd a0 40 55 bb c2 5e 76 bd 6a 4e 45 3c
       -0.04381189 -0.003253974 -0.06014896 0.012042621
0001e0 33 66 59 3d 58 16 41 3c 92 bc 5a 3d eb 5f aa bc
       0.05307598 0.011785112 0.05340249 -0.02079769
0001f0 29 37 d1 3c e8 18 af bc 92 72 48 3d 58 29 06 3c
       0.025538998 -0.02137418 0.048937388 0.008188568
000200 85 1d 74 bb 68 f0 84 3d d8 92 5f 3c a0 50 a4 3d
       -0.003724904 0.06491166 0.01364585 0.080231905
000210 69 5d 31 bc f1 5e 6e 3a 33 84 55 3c 88 74 38 3d
       -0.010825493 0.0009093127 0.013032007 0.045033008
000220 1e 85 35 bd 4a e3 c9 bc 3e 65 0f bd c2 82 65 3d
       -0.044316404 -0.024644513 -0.03500866 0.056032903
000230 57 ab 01 bd a7 7e 8d bc e9 ee 58 3d f0 09 5f bd
       -0.031657543 -0.017272307 0.052962217 -0.054452837
000240 32 a2 86 bc 18 f7 85 3c 5d a3 34 bc 9e 02 3c 3d
       -0.016434763 0.016353175 -0.011025277 0.045900933
000250 9d 87 ae 3c 84 ac 26 bd 4b 4e 87 ba b2 6f 65 bd
       0.0213049 -0.040691867 -0.0010323016 -0.056014724
000260 62 e4 b3 3d 8c 76 f9 bc b0 0d a7 bc 13 e4 05 bd
       0.08783795 -0.030452035 -0.020392269 -0.03268821
000270 28 7c 00 3d b4 07 00 3d 97 05 0e 3d 92 1e 88 bc
       0.031368405 0.031257346 0.0346733 -0.01661614
000280 0f 2b f3 3c 2f 95 d9 bb a2 60 8a 3d c4 9e 45 3b
       0.029683618 -0.0066400985 0.067567125 0.0030154446
000290 6f c1 b3 3c b4 f7 e8 bc b7 f1 ca 3c ff 31 8f 3d
       0.021942822 -0.028438427 0.024773462 0.06991958
0002a0 03 42 5e 3d f5 da a3 3c 75 7e a0 3d fd 43 a6 bc
       0.054262172 0.020001868 0.0783662 -0.020296091
0002b0 97 50 7a 3c 85 6e be bc cd 7b 8a ba c0 42 8d 3d
       0.015278003 -0.02324606 -0.001056546 0.06897497
0002c0 5e 2f de 3b 11 51 9d 3c 50 a3 00 3d 01 56 84 3d
       0.006780549 0.019203695 0.031405747 0.064617164
0002d0 04 95 f2 bc 88 72 96 bc dc 0f ce bb 34 05 3b bc
       -0.029612072 -0.01836516 -0.0062885117 -0.011414815
0002e0 31 ea 0c 3a 88 42 0b bd e4 f4 10 3d cd 94 0f 3c
       0.00053754734 -0.033998996 0.035389796 0.008763504
0002f0 f1 37 85 3d f9 06 84 3d fc de 8e bb a1 0a 5c 3d
       0.065048106 0.064466424 -0.004360078 0.053721074
000300 a4 1a 17 bc 6e a8 28 3d 9b cf b9 bc 2c 8b a0 3d
       -0.00922266 0.041176252 -0.022682002 0.07839045
000310 95 1e 4b 3d 77 ad 55 bc 3b b6 b7 3c 9f 01 04 bc
       0.049589712 -0.0130418455 0.022425761 -0.008057027
000320 21 73 bd bc 8c e8 1e 3d a5 b9 92 3b 56 df af 3c
       -0.023126187 0.038795993 0.004477697 0.0214688
000330 af 58 1e 3d bd 4c 54 3d da be d2 3b be 8a 75 bd
       0.038658794 0.051830996 0.0064314427 -0.059946768
000340 49 a0 72 3d 78 33 99 3d ea 6d 84 bc cd 49 04 3d
       0.05923489 0.0748052 -0.016165692 0.032296944
000350 04 5f b4 bc d8 a6 05 bc bb c6 76 3d eb 44 d2 bc
       -0.022017963 -0.008157454 0.060248118 -0.025667628
000360 fb 11 97 3d ae 35 5d 3d b6 19 2f 3d 3f 80 ec bb
       0.073764764 0.05400627 0.04274913 -0.0072174366
000370 ad 45 a8 bc 53 b8 8a 3d 55 6d 63 bc 43 e0 35 3c
       -0.020541037 0.06773438 -0.013881047 0.011100831
000380 31 c5 8f 3c cf 09 58 bd 48 35 ea 3c 49 40 86 3d
       0.017550083 -0.05274373 0.02858986 0.0655523
000390 7a b3 8a 3d fa c3 7f 3c 7c 8e 64 bd 32 6a c1 bc
       0.06772514 0.015610689 -0.055799946 -0.023610208
0003a0 c3 db af 3c a0 d6 3c 3c 7d 07 a6 3b 17 14 13 bd
       0.021467095 0.01152578 0.0050668106 -0.03590783
0003b0 1e df 89 3d 23 85 2c bd 71 ac b7 3b 2c 9c 32 3d
       0.06732009 -0.042119157 0.0056052734 0.04360597
0003c0 b7 74 d8 bb b8 79 a7 3b 40 20 5c bb e3 8d 69 3d
       -0.0066057104 0.0051109456 -0.0033588558 0.05702008
0003d0 4f 25 43 3c cc 09 12 bc b3 3f 57 bd cd bc 22 3d
       0.0119107505 -0.008913469 -0.052550983 0.039730836
0003e0 84 26 a0 bc 88 20 15 bd 80 69 4e 3c 86 a6 ed 3c
       -0.019549616 -0.036407977 0.012598395 0.029010069
0003f0 99 d6 f9 bc 86 04 8a 3d 07 90 43 bd df 4b 0e bd
       -0.030497836 0.06739144 -0.047744777 -0.034740325

network.3.bias f4 [128]
000000 ef 68 e6 3c c0 d8 40 3d 5e 3e ab 3c d1 8b f7 3b
       0.028126208 0.04708171 0.020903762 0.007554509
000010 1e 54 30 3d e8 1c 82 3d 81 01 6c 3d f0 56 72 3c
       0.04304897 0.0635317 0.05761862 0.014791235
000020 e8 8c 71 bd 52 52 4a bd 11 cc 08 bc 0e e0 f8 3b
       -0.05897227 -0.049394913 -0.0083494345 0.007595069
000030 64 48 fa bc 5c 0d 95 ba d4 73 1e 3d 63 aa ca 3b
       -0.030552097 -0.0011371779 0.03868468 0.0061848625
000040 3b 85 5f 3d f5 aa 17 bc b6 5d 17 bd 03 86 43 3c
       0.054570418 -0.009257068 -0.036954604 0.011933806
000050 6b b3 ed bc b0 2a be bb 1a 36 56 3c 4c 26 24 bc
       -0.029016217 -0.0058034286 0.013074422 -0.010018896
000060 de ad 04 3d ed af a1 3d e6 df db bc 10 e1 11 bd
       0.032392375 0.07894883 -0.026840162 -0.035615027
000070 db 4f 07 3d 95 e9 80 3d ac 95 85 bc 5d 52 99 bc
       0.03303514 0.06294552 -0.01630672 -0.018716032
000080 40 83 63 bd 1e 2c 0e bc f3 de d4 3b 29 37 b9 3c
       -0.05554509 -0.008677511 0.006496304 0.02260931
000090 20 4d e2 3c 2b d8 3b 3d e4 c4 aa 3d 8b d2 f5 3c
       0.027624667 0.04586045 0.08338335 0.030007621
0000a0 3c d8 42 bd 05 13 34 bc 48 4b 2b bd 20 2b 1c bd
       -0.0475695 -0.010990863 -0.04181984 -0.038127065
0000b0 20 bb 88 bd d4 a2 64 3b 62 bf 38 3d 80 54 0f 3d
       -0.06676316 0.0034887092 0.045104392 0.034992695
0000c0 ef 71 a1 bc 9e 69 38 3d 58 c8 be bc 98 db 23 3c
       -0.019707648 0.0450226 -0.02328889 0.010001086
0000d0 dd 80 43 3d 24 de 07 bd a2 e2 a9 3d 39 bb 09 bc
       0.047730315 -0.033170834 0.0829518 -0.008406454
0000e0 76 c8 59 bd df eb 49 bb e8 14 35 bd 44 37 05 bd
       -0.05316969 -0.0030810756 -0.04420939 -0.03252341
0000f0 ca ee 80 3d f0 31 0a bc a2 fd 51 bd 01 f6 5a 3d
       0.062955454 -0.008434758 -0.051267274 0.053457264
000100 bc 2e 67 bd 24 94 63 3d ca 5a 45 bc 5c 36 84 3d
       -0.056441054 0.0555612 -0.012045572 0.06455681
000110 70 ef 0c 3c 50 86 da 3b c1 bc 07 3c 22 7c 1f bd
       0.008602008 0.0066688433 0.0082847485 -0.03893674
000120 64 ea 8f 3d 47 7e 3e 3d 14 e0 be bc 83 18 67 3b
       0.07027128 0.046507146 -0.023300208 0.0035262413
000130 55 c0 b7 bc bb 6d 0d 3c 38 29 38 bd c6 ac 4e bd
       -0.022430578 0.008632119 -0.044961184 -0.05045774
000140 79 7a d0 bb 6f 65 39 3d 6f 19 33 bd 5c 66 04 3d
       -0.006362256 0.04526275 -0.043725427 0.03232418
000150 78 f1 49 bd 08 9a 3d bd 19 13 14 bd 67 14 e6 3b
       -0.04930255 -0.046289474 -0.036151025 0.007021475
000160 b6 80 6c 3d 3a 89 26 3c b4 a3 a2 3b fe 87 83 3d
       0.057739936 0.010164553 0.0049633626 0.06422423
000170 a6 fa 22 bb 8c 78 72 bd 9d 60 a5 3d d1 b6 8b 3d
       -0.0024868636 -0.059196994 0.08075068 0.06821979
000180 27 82 ee ba 27 b9 3f 3d e4 b3 71 3d 10 2f a8 3d
       -0.0018196747 0.046807434 0.059009448 0.082121015
000190 ce 36 a6 3c e9 7b 13 3d 08 0e 7f bd c8 57 06 3d
       0.020289805 0.03600684 -0.06226924 0.03279856
0001a0 af 29 9a bc 6e 0a d4 bc b3 70 29 3d 40 ee de 3b
       -0.018818704 -0.02588388 0.041367244 0.006803304
0001b0 59 6a 13 bd 8e f1 28 bd c2 05 62 3c 26 56 9b 3d
       -0.035990093 -0.04124599 0.013795318 0.07584791
0001c0 d9 e7 b6 3d 52 53 57 3d 72 f9 d1 3c 90 c9 22 bd
       0.0893094 0.052569695 0.02563164 -0.039743006
0001d0 18 04 bb 3c 5f 18 21 3d 95 37 47 3d 2b 21 2a bd
       0.0228291 0.039329883 0.04863699 -0.041535538
0001e0 64 2a 38 3d 68 51 56 bc 4e ac 80 3d 35 81 b7 3c
       0.0449623 -0.013080932 0.062828645 0.022400478
0001f0 6a 27 78 bd cb 11 44 bc 4b 6a 06 3d 9d 2f c0 bc
       -0.060584463 -0.011967133 0.032816213 -0.023460204

network.6.weight f4 [64, 128]
000000 cc 33 66 3d b2 9e 83 3c 0f 0b 1a bd 73 0f 69 3c
       0.05620174 0.016066883 -0.037608203 0.014224875
000010 3f 9f 17 bb 69 50 d8 3d 7a 1b c1 3d 4c 55 9f 3d
       -0.002313569 0.10562212 0.09429069 0.07779941
000020 4b 32 aa 3d da d2 47 3d f3 22 be 3d f8 3f 41 3d
       0.08310374 0.048785068 0.0928401 0.047180146
000030 3a c6 a0 3b 02 e3 16 3b e3 35 87 bd 68 ec de 3d
       0.004906443 0.002302349 -0.06602075 0.10884935
000040 13 c4 62 bd aa f3 43 bc 5d 24 f8 bb 60 7f 40 3d
       -0.055362772 -0.0119599495 -0.007572694 0.046996474
000050 3d f6 65 bc 04 dc 50 bd cc 1f c2 bb 7a ba b8 3d
       -0.014035759 -0.050991073 -0.0059242006 0.090199426
000060 67 bd 96 bd 49 eb ab 3d d1 69 37 3d 6d 60 90 bd
       -0.073603444 0.083944865 0.04477865 -0.07049642
000070 5f b8 8c bd 31 c4 b9 3d ec 3e 33 3d 75 f8 9b 3d
       -0.068711035 0.09070624 0.04376118 0.07615749
000080 44 cd bb ba 2f c6 4b bd 1d 8f 0f bd ba 9e 2a 3d
       -0.0014328142 -0.04974955 -0.035048593 0.04165528
000090 2c 4d d6 bc 9c c2 38 3d c4 e8 87 3c 4a fa e5 3d
       -0.026159845 0.04510747 0.016590483 0.112293795
0000a0 8c 3d 95 bc 09 44 11 3d 25 a0 b8 3c 4f ce 3c 3d
       -0.018217824 0.035465274 0.0225373 0.04609519
0000b0 2c 2a 88 bd 91 d2 41 bd d3 d1 3a bc a7 f2 27 bd
       -0.06648669 -0.047319952 -0.011402565 -0.041002896
0000c0 f2 13 14 3d ef 3b 6b 3d 0e 9a 8f bc e1 2e c7 3d
       0.036151834 0.057430204 -0.017529514 0.09725738
0000d0 68 5e 32 3c 57 b6 b0 3c 52 f3 bc 3d 50 34 fd 3b
       0.010886766 0.021571321 0.09226097 0.0077271834
0000e0 eb d4 61 3d 57 94 fa 3c c8 bd 20 3c 1e f5 30 bc
       0.055134695 0.030588312 0.009810872 -0.010800628
0000f0 e1 43 4b ba 13 fe 85 3c a6 2d 2c bd 76 cf 01 bd
       -0.000775395 0.016356504 -0.04203572 -0.03169199
000100 d8 ba 46 3c 49 67 67 3d 4f 35 56 3d 86 66 81 bd
       0.012129508 0.056494985 0.052296933 -0.06318383
000110 11 08 ee 3c d4 6d fa 3c b5 c1 59 3d 2b 17 9d bd
       0.02905658 0.030569948 0.05316325 -0.076704346
000120 4b f0 ce 3d bb d1 19 3d e0 ba 9a 3d ba 20 68 3d
       0.10104426 0.03755353 0.07555175 0.056671835
000130 8c b1 09 3d 29 ed 96 3d c7 3b 1b bd 1a b5 69 3d
       0.033616588 0.073694535 -0.037898805 0.057057478
000140 67 90 ac bd cd 2c c2 bc 6b b5 78 3d ff 6f f5 bc
       -0.0842598 -0.023703003 0.06071989 -0.02996063
000150 1b 83 25 bd 5e 99 6b 3b c8 05 59 bd c3 0b 99 3d
       -0.040408235 0.0035949568 -0.05298403 0.074729465
000160 dc 13 d1 3d 68 86 95 3d 2f 3c 94 3d 5d bc 8b 3d
       0.10208866 0.073010266 0.072380416 0.06823037
000170 ec 3d ad 3d a8 1d 8e 3c 1b e5 c3 bb a3 cd 31 3d
       0.08459076 0.017348126 -0.0059782392 0.043409
000180 0f 72 3c bc 69 dc dc 3d d5 ef c6 3d 07 09 cd 3d
       -0.011501803 0.107842274 0.09713713 0.100114875
000190 f6 10 58 bc f2 57 cd 3d 52 35 16 3d 46 dd 94 bd
       -0.013187638 0.1002654 0.036671944 -0.07268767
0001a0 21 fc 3c 3d 88 bc d1 3b 7a d5 a7 3d 5e 9f dd 3c
       0.046138886 0.0064006485 0.08195014 0.027053531
0001b0 3c 41 75 bd 07 7b d7 3c 40 59 2e 3d 3d e2 4d bd
       -0.059876665 0.026303781 0.042565584 -0.050264586
0001c0 12 14 8a 3d 11 20 48 bc b1 f9 76 3d 1a 61 e9 3c
       0.06742109 -0.0122146765 0.060296718 0.028488684
0001d0 68 cd 52 3d 76 a6 59 3d fb 04 23 bd b4 11 8c 3d
       0.051465422 0.053137265 -0.03979967 0.06839314
0001e0 49 cf 9a bd 40 92 48 3d cd 5a cf 3d 17 75 8a 3c
       -0.07559068 0.0489676 0.10124741 0.016901536
0001f0 ab ae 20 3d 38 8c fa bc 78 c6 5c 3d 29 03 03 bd
       0.039229076 -0.03058444 0.053900212 -0.031985436
000200 f3 40 e5 3c bf 2d aa bc 52 d1 2a bd 78 4f a6 bd
       0.027985072 -0.020773767 -0.04170353 -0.08120626
000210 13 40 69 3d a4 3f 5b 3d 42 52 99 bd 9e 7b 32 bc
       0.05694587 0.05352749 -0.074863926 -0.01089373
000220 5a 14 92 bc f8 49 ae bd 6b 49 d7 bb 1f fd 0e 3d
       -0.01783197 -0.08510202 -0.0065700314 0.034909364
000230 d5 3a a2 bd c8 1d 92 bd b1 3e 9e 3d 20 9e a6 bd
       -0.079213776 -0.071345866 0.07726801 -0.08135629
000240 0a d1 c4 3c 5b 3a a7 3c 84 c8 d8 bc ea 6b 31 bc
       0.024025459 0.020413568 -0.0264628 -0.010828951
000250 95 a1 77 3d a9 db 28 3d 5f f3 39 bc 2e a8 7f bc
       0.06045683 0.04122511 -0.011349528 -0.015604062
000260 b7 c1 83 3c db ce bb bb 74 57 17 3c d0 66 8a bd
       0.016083581 -0.005731446 0.009237159 -0.06757891
000270 65 8f ae bd 09 e6 a4 bd d3 d8 90 bd 2d ae d8 bc
       -0.08523444 -0.08051688 -0.07072606 -0.026450241
000280 54 bc bd bc b8 33 ad 3d 98 a4 9e bd de 78 de bc
       -0.02316109 0.0845713 -0.077462375 -0.027157243
000290 ce 2c 59 3d 97 af 86 3d 98 d5 65 bd 8c c1 2b bc
       0.053021245 0.0657646 -0.056111902 -0.010483157
0002a0 d1 7b 32 bd b6 40 03 3d d0 3a ca 3c 4a 62 a2 bb
       -0.04357511 0.032044135 0.024686247 -0.0049555646
0002b0 e1 75 55 3d fa 5b 5a bd 07 2f 0f 3d c9 c1 90 bd
       0.05211437 -0.053310372 0.03495696 -0.070682116
0002c0 d6 c0 11 bd fe 41 10 bc 91 aa a7 bc 0f 96 12 3d
       -0.035584293 -0.008804796 -0.020467075 0.03578764
0002d0 df 57 b1 bd 22 dc 20 3d f9 8f a6 bd 1e 8d 43 3d
       -0.08659338 0.039272435 -0.08132929 0.047742
0002e0 80 26 ae bd 0c a2 53 3d aa a6 10 bd 77 1d a1 bd
       -0.08503437 0.05166821 -0.035315193 -0.07866948
0002f0 08 d1 04 3d d6 14 40 3c ed e4 2d 3d 41 83 5c bd
       0.03242591 0.011723718 0.04245465 -0.05383611
000300 3f 86 06 bd a6 df 3b 3a 02 2a b2 bd 4f 49 a4 3a
       -0.03284287 0.000716681 -0.086994186 0.0012534055
000310 31 9c 34 bd a2 b7 dc 3c af 57 91 3c 2c c4 86 3d
       -0.04409427 0.026943032 0.017742006 0.065803856
000320 f8 aa 8c bd dd df 8a bd e7 8e ae bd 51 b5 ba bc
       -0.06868547 -0.0678098 -0.0852335 -0.022791537
000330 30 7d f5 3a f0 0e 9a bc 7a 2c 04 bd b5 b6 71 bd
       0.0018729325 -0.01880595 -0.03226898 -0.059012134
000340 32 6f 6e bc f0 33 dc 3c fd ed 24 3d ee 7d 4f bd
       -0.014552878 0.026880234 0.040266026 -0.050657205
000350 c9 45 33 bd ec 71 83 bd 0a 78 88 3d 98 90 31 3d
       -0.043767724 -0.06418213 0.06663521 0.043350786
000360 eb dc b1 3b d7 2e 93 3d e2 13 de 3c 17 b1 50 bd
       0.005427947 0.07186668 0.02710909 -0.050950136
000370 f9 d2 79 3d 21 0c 8d bd 01 62 a6 bc be 7f a5 3d
       0.060992215 -0.06887079 -0.020310404 0.080810055
000380 67 1b 59 3d 92 ac 9c bc 9a a7 34 bd a2 05 96 bd
       0.05300465 -0.019125257 -0.04410515 -0.07325293
000390 f1 27 2f bd 9d 59 94 3c 4d f4 99 bd cd 17 31 bd
       -0.0427627 0.018109137 -0.075173 -0.04323559
0003a0 44 c4 90 3d 89 04 30 3d fd 07 ad 3d 77 70 61 3d
       0.07068685 0.042973075 0.08448789 0.055038895
0003b0 ce 7f d6 3b e6 15 3a bd 43 b5 2d bd 02 c9 44 bd
       0.006545997 -0.04543104 -0.042409193 -0.04804326
0003c0 a9 30 ee bb 18 62 67 bd b0 67 5c bc 0b e7 69 3d
       -0.0072689843 -0.056490034 -0.013452455 0.057105105
0003d0 c3 d1 61 3d 68 06 e2 bc 33 5c 03 3c b8 e7 f5 3c
       0.055131685 -0.027590945 0.0080175875 0.030017719
0003e0 68 ca 75 3d 8c 2e 75 bd c8 1f 2a 3c de d5 c2 bc
       0.060007483 -0.059858844 0.010383554 -0.02378362
0003f0 77 5a 25 bd 08 d3 7c bd 03 2f 9e 3d d2 57 34 3d
       -0.040369477 -0.061724693 0.077238105 0.044029064

network.6.bias f4 [64]
000000 53 02 6e bc d9 17 ed 3b c6 55 4c 3d d3 34 b6 3d
       -0.014526921 0.007235509 0.049886487 0.08896794
000010 d5 2a c3 3d 55 66 08 3d 13 f8 d7 3d 12 06 93 bd
       0.09529654 0.033300716 0.10545363 -0.07178892
000020 d3 58 2e 3d c4 8f 6e 3b 47 41 bf 3d 66 35 61 bb
       0.042565178 0.003640161 0.093386225 -0.0034364103
000030 3b 4e 06 3d 53 16 5b 3d 4d fa da 3c 31 40 2d bd
       0.03278945 0.053488087 0.02673068 -0.042297546
000040 76 77 3d bd 6b bb a4 bd 3f c9 4f 3d bf 83 a3 ba
       -0.046256505 -0.0804356 0.050729033 -0.0012475176
000050 8f 45 2a 3c 50 71 8a 3d 84 08 17 3d 3b c1 a1 bd
       0.010392561 0.06759894 0.036873356 -0.07898184
000060 5d 1d 8f bc e5 16 e1 bc f0 44 97 3c 2b e5 bb 3d
       -0.017470056 -0.027476737 0.01846549 0.0917457
000070 08 4f 96 3d aa da 09 bd c4 2a 0a bd 8a 2c 8f ba
       0.07339293 -0.0336558 -0.03373219 -0.0010923308
000080 14 d9 b3 3c 49 66 b3 bd 75 52 9f bd c4 15 3d 3d
       0.021954097 -0.08759744 -0.07779399 0.046163335
000090 55 0e f5 bb b1 80 97 3d f4 6d 33 3d 07 09 db bc
       -0.007478515 0.07397593 0.04380603 -0.026737703
0000a0 6d ff 3f 3d f7 62 fd 3c 6c b8 a9 3b 5d 8b 85 3c
       0.046874452 0.03093098 0.0051794555 0.016301805
0000b0 2b 0e 66 bb 4f d5 0e 3d 1e 92 c9 3c af 3b a5 3d
       -0.003510366 0.034871396 0.024605807 0.08068024
0000c0 48 b2 52 3d cb 5c c7 3d 7f ed be 3d f0 95 de bb
       0.051439553 0.09734496 0.093226425 -0.0067927763
0000d0 f9 8c 78 bc 24 a0 b1 3d 9a be 4e bd 08 57 be bd
       -0.015170329 0.086731225 -0.05047474 -0.09293944
0000e0 ab 78 09 bd d2 73 12 bd 7f b6 aa bc fa 3e 50 3d
       -0.033562344 -0.035754986 -0.020838974 0.05084131
0000f0 08 d2 12 3d b3 74 fa bc 7b 15 5f bd f6 fe 12 3d
       0.035844833 -0.030573225 -0.054463845 0.03588768

network.9.weight f4 [64, 64]
000000 ad e7 d1 bd 70 cd ae 3c 28 29 be bc 76 9c c6 bd
       -0.10249267 0.021338195 -0.023212984 -0.09697811
000010 c1 05 8a 3d 5e 9a dc bd 3b 02 c4 bd e0 de 0d bd
       0.06739379 -0.10771631 -0.09570738 -0.03463638
000020 7a ce 8f 3d 18 9d 88 3d 84 a9 21 3d b8 7b 2a bc
       0.07021804 0.06670588 0.039468303 -0.010405473
000030 48 74 bd 3d 58 03 60 bd a8 fc b8 bb d6 6c 88 3d
       0.092506945 -0.05469069 -0.0056453533 0.06661384
000040 68 5d df 3d 5c af cc 3c f7 b3 12 bc 4c 2c 74 3d
       0.10906488 0.024985962 -0.00895404 0.059612557
000050 8b 49 82 bc 10 aa c6 bd 8f 88 01 3d 90 58 24 bc
       -0.015904209 -0.097004056 0.031624373 -0.010030881
000060 24 5b fe bc 35 09 3e bd db 2e 80 bc f2 85 83 3d
       -0.031049319 -0.0463955 -0.015647342 0.064220324
000070 9d a6 c9 3d 08 b8 87 3c 8c 9e 15 bd f0 8b bb bd
       0.09846232 0.016567245 -0.036528155 -0.0915755
000080 7c 91 4e 3d 3c 57 2c bd 23 37 b2 bc 18 70 65 3d
       0.050431713 -0.04207538 -0.021754807 0.056015104
000090 30 01 6e 3d b4 11 81 3d b8 cd 3a bd 74 74 b9 3d
       0.0581066 0.06302205 -0.045606345 0.09055415
0000a0 e6 f0 c8 bd 8c 56 5e 3d 15 e9 a2 bd dd 5c 95 3d
       -0.09811573 0.054281756 -0.07954613 0.07293103
0000b0 57 14 df bd 98 e9 3a 3d da 6a 95 bc 76 ac db bd
       -0.108925514 0.04563293 -0.018239427 -0.10726254
0000c0 96 c2 ab bd 7a 0d 5c 3c 66 04 f7 bd 88 67 81 3d
       -0.08386724 0.013430947 -0.12061386 0.06318575
0000d0 7a 10 bc 3d bd 79 e6 bd 18 81 9a 3d ae 5c d6 3d
       0.0918283 -0.112536885 0.07544154 0.10466896
0000e0 5a e3 f8 bd 68 53 03 3d f7 15 e2 3c 8d 6f 6b bd
       -0.12152739 0.032061964 0.027598364 -0.05747943
0000f0 fe a7 3f bd 2e 82 8f bd cf 73 d8 3c 84 20 3d bd
       -0.04679107 -0.07007252 0.02642241 -0.046173587
000100 14 3f be bd 64 52 fc 3d de c1 fa bd fc 20 a1 3d
       -0.09289375 0.12320402 -0.122440085 0.078676194
000110 e2 b7 89 3d e1 c9 94 bd 45 ed 9c bd 94 62 4d bd
       0.06724526 -0.07265068 -0.07662443 -0.05014284
000120 6b 01 33 3d 18 77 5e bd 6a 02 91 bd e0 da d0 bd
       0.043702524 -0.054312795 -0.070805386 -0.10197997
000130 20 6c bd bc 5b 7b 2c 3d e4 d7 b5 3d 00 dc a5 3d
       -0.023122847 0.04210983 0.088790685 0.08098602
000140 86 85 c7 3d 37 dd f8 bd 73 66 06 bd 28 7b 88 bd
       0.097422644 -0.121515684 -0.032812547 -0.06664115
000150 4e d8 e5 3d 5b f6 8c 3d b6 90 d5 3d 3c fe f0 bd
       0.112228975 0.06882926 0.10427992 -0.11767241
000160 76 8a 72 3c 25 67 67 bc 1e 63 8b 3d 0e c2 b0 bc
       0.0148035195 -0.014123713 0.068060145 -0.021576907
000170 27 2a 92 bd c4 5d 1d 3d 44 5b ea 3d 48 94 18 3d
       -0.07136946 0.0384195 0.11443189 0.037250787
000180 ac 4d 40 3b aa 28 ed 3d 0c e9 3f 3d 30 45 20 bd
       0.002934317 0.11580022 0.04685311 -0.039128482
000190 8e 37 dd bd bc 19 03 3d f2 e5 cb bd 48 13 ab 3d
       -0.10801612 0.032006964 -0.09955968 0.08353287
0001a0 8f 9e b7 3d c6 10 14 bd 0b 91 73 bd 3d 75 c1 bd
       0.089657895 -0.03614881 -0.059464496 -0.094461896
0001b0 84 7f 4a 3c 65 b5 d9 bc 37 24 e8 bc 18 00 e6 3d
       0.012359504 -0.026575753 -0.028337581 0.11230487
0001c0 a8 80 04 be 99 0f b8 bd ee b4 86 bd fe 38 6c bd
       -0.12939703 -0.0898735 -0.06577478 -0.05767154
0001d0 f0 83 7f bc 87 13 b0 3d 98 45 92 3c 3a 48 d5 bd
       -0.015595421 0.085974745 0.01785545 -0.10414167
0001e0 f2 33 b3 3d 30 c8 97 bd 2f 14 13 bc 27 8e 09 3c
       0.08750142 -0.074112296 -0.00897698 0.008395708
0001f0 73 7e c6 3c 0d d4 b4 3d 1e 27 80 bd a4 88 54 bc
       0.024230218 0.08829508 -0.06257461 -0.012972031
000200 80 53 b4 bb 28 da 1f bd 90 8e 5d bc 08 8c 90 bd
       -0.005503118 -0.03902641 -0.013522759 -0.07057959
000210 de 1e fa bd 2a 4a bc 3d c0 a1 53 bc 6c 99 56 3d
       -0.12212919 0.09193833 -0.012916982 0.05239241
000220 9a 3c 87 3d 10 79 1a bd 10 06 46 bd 90 5a 45 bc
       0.06603356 -0.03771311 -0.048345625 -0.012045518
000230 ec f4 de bd 8c 43 10 3d 7e c7 9f 3d 76 3f da bd
       -0.10886559 0.035220668 0.07801722 -0.106566355
000240 12 3d 8b 3d 94 0e b9 bd 88 03 c0 bc 10 e7 ae 3d
       0.067987576 -0.09035984 -0.023439184 0.085401654
000250 aa c1 ba bd dc bf ca 3d 66 ab b9 3d 1c ea 77 3d
       -0.0911897 0.098998755 0.09065895 0.060526
000260 fc cf 06 3d 3c 4a 64 bd d8 38 9b 3c 5a c4 93 3d
       0.032913193 -0.055734858 0.018948004 0.072151855
000270 7a 0e ec 3d 0c bf 0b bd 30 45 93 3c 38 53 08 3d
       0.11526199 -0.034117743 0.017977327 0.03328249
000280 30 84 8a bc 4e 67 f1 bd b0 f0 2f bc 80 65 97 bb
       -0.016908735 -0.11787282 -0.010738537 -0.004620254
000290 3a 45 cc bd 30 a6 02 3d 5c af ac 3d 24 1d cd bd
       -0.099741414 0.03189677 0.08431885 -0.10015324
0002a0 9c 12 17 bd 12 17 e8 bd e8 7c 18 bd 50 4d 40 3c
       -0.03688298 -0.11332525 -0.037228495 0.011737183
0002b0 3a ee fc bd 0c 26 df bd e8 f4 ab bd 48 73 85 bc
       -0.123501256 -0.10895929 -0.083963215 -0.016290322
0002c0 f6 37 8a 3d a8 24 cb 3c fc 00 62 3d a4 80 5a bd
       0.06748955 0.024797752 0.05517672 -0.053345338
0002d0 7e 2e d6 3d fc d4 e9 bd 7a 44 d2 bd 70 eb 22 bd
       0.104580864 -0.11417577 -0.10266967 -0.039775312
0002e0 20 b7 52 3d 8a 1d e2 bd 38 71 8b 3c f0 97 60 bc
       0.051444173 -0.110407904 0.01702176 -0.0137081
0002f0 78 b3 63 3d 02 97 f6 bd c4 c3 43 bd 20 a6 a1 bb
       0.055591077 -0.12040521 -0.04779412 -0.0049331337
000300 21 db 1b bc f2 51 86 3d 7c aa a7 bd 79 2f aa 3d
       -0.009512694 0.065585986 -0.08186814 0.08309836
000310 f4 92 51 3d a4 00 b9 3d 8a 5a a6 3d 18 6b ea 3d
       0.051165536 0.09033325 0.08122738 0.11446208
000320 8e 02 ef 3d 90 3a ac 3c 18 e4 5b bb bf fd 5a 3d
       0.11670409 0.021024019 -0.0033552703 0.053464647
000330 32 9e e5 bd da 40 f9 3d 20 26 0f bb b7 e1 b5 3d
       -0.11211814 0.121705726 -0.0021842793 0.08880942
000340 e8 9f d3 3d 23 00 f6 bd 5b ec bf 3d 32 3c ea 3d
       0.10333234 -0.12011745 0.09371253 0.114372626
000350 d8 aa 47 bb 58 3f 1a bd b9 6c b1 bb 3a 35 8d 3d
       -0.003046682 -0.037658066 -0.005414572 0.06894918
000360 2b 78 c4 3d d2 47 bd 3d 46 aa a9 3c d4 83 ed bc
       0.09593233 0.09242214 0.020711076 -0.028993525
000370 a5 56 a7 3d 2a 43 fa bd dc 21 59 bd 02 64 84 bd
       0.08170823 -0.12219842 -0.053010806 -0.064643875
000380 f6 85 82 3d f0 d4 a4 bc 66 29 8b bd fc 85 7b bd
       0.06373207 -0.020121068 -0.067950055 -0.061407074
000390 dc f0 5f 3d a6 b4 81 3d ce 27 83 3d 28 f4 1f bd
       0.05467306 0.06333284 0.064040765 -0.039051205
0003a0 ec 8d 03 3e aa e3 de 3d f0 cb 74 3d bd 0a 61 bd
       0.12847108 0.10883267 0.059764802 -0.05494188
0003b0 b0 85 5a bd 67 1e ad bd c8 b9 e9 3c 60 60 43 bd
       -0.05335015 -0.084530644 0.02853097 -0.047699332
0003c0 16 f4 2b bd ac 1c f9 3d ce 4c b9 3d b6 37 bb bd
       -0.041980825 0.12163672 0.090478525 -0.091414854
0003d0 44 06 29 bd fa 55 af bd 44 b2 9e 3d 84 60 80 3d
       -0.04126574 -0.085613206 0.07748845 0.06268409
0003e0 06 2f 82 3d f6 5c a3 bd 35 4c b2 3d d5 dc 9b 3d
       0.06356625 -0.07976715 0.087059416 0.0761048
0003f0 48 6a 91 3c 6c f2 f0 bd 87 52 c7 3d fc 92 83 bd
       0.017750874 -0.11764988 0.09732538 -0.064245194

network.9.bias f4 [64]
000000 8d 83 41 bd 9d 55 e1 3c 08 fd 73 bd 1f 16 b7 bd
       -0.047244597 0.027506644 -0.05956748 -0.08939766
000010 50 2a df 3c 79 d9 e8 ba 08 c5 d2 3c 7a 92 9d 3d
       0.027241856 -0.0017765007 0.025728717 0.07693954
000020 b0 a0 b7 bc 20 b5 88 bb 95 8a 48 3d fb 41 1d 3d
       -0.022415489 -0.0041719824 0.048960287 0.038393002
000030 7f 66 d9 3d 3e 1f e0 3d ab 64 c7 3d a7 fb 0e 3e
       0.10615253 0.10943459 0.09735998 0.13963185
000040 c3 c2 8d bd 04 73 d7 bd f3 07 d5 3d 61 2d c6 bb
       -0.069219135 -0.10519984 0.10401907 -0.00604789
000050 6b 5a e1 3d 4d 4b ae bc ed 0a fa 3d 34 09 5c bd
       0.11003574 -0.02127614 0.12209115 -0.053719714
000060 26 3a ac bd a0 a2 89 bd a7 21 43 3c ef 18 86 3d
       -0.084095284 -0.067204714 0.011909879 0.065477245
000070 3e 9a 06 3e cb 0c 4a bd af 34 54 3d d3 46 ba 3d
       0.13144776 -0.049328607 0.051808055 0.0909554
000080 a8 31 d8 3d 8d 22 45 3d 90 3e 00 3d 9d a9 b6 3a
       0.10556346 0.048128653 0.031309664 0.0013936047
000090 10 ad 9b bd 70 b0 09 3d 4e 77 c1 3c e5 44 c0 3d
       -0.076013684 0.03361553 0.02361646 0.093881406
0000a0 ba 45 a9 bd ec 83 c8 bc f0 2a 8c bc 75 52 83 3d
       -0.082652524 -0.024476968 -0.017110318 0.06412212
0000b0 44 6e ad bd 06 b4 83 bd d0 97 c8 bd fb 40 16 3d
       -0.08468297 -0.06430821 -0.09794581 0.036683064
0000c0 40 02 48 3d 5d 2a d0 3d 4c d3 94 bc dd f8 b0 bd
       0.04883027 0.1016433 -0.01816716 -0.08641217
0000d0 89 f6 e3 bd 44 4a 91 3c 1d eb d9 3d 56 73 c6 bd
       -0.11131007 0.017735608 0.106405474 -0.09689967
0000e0 3c 3c bb bd c5 f2 88 bd 85 52 cd 3d fd 83 a0 bc
       -0.09142348 -0.066869296 0.10025505 -0.019594187
0000f0 5d c1 5c 3c db eb 43 3d 38 e8 2c 3d a0 63 60 bd
       0.013473836 0.04783235 0.04221365 -0.05478251

network.12.weight f4 [32, 64]
000000 af 7e bf bd e6 cd d2 bd ec ed b5 bd ce 52 97 3b
       -0.09350335 -0.10293178 -0.088832706 0.0046180254
000010 ea 3a d4 3d 11 cd 7d 3b 9e fd 15 bd 88 8d a8 3d
       0.103627995 0.0038726965 -0.03661882 0.0823012
000020 5a fa cb 3d 98 7e f6 bd 38 02 f8 3c c5 e8 ce 3c
       0.0995986 -0.120358646 0.030274495 0.025257478
000030 f2 8c 7c bc 3c 86 e0 3c a0 ad f2 bd af a7 71 bb
       -0.015414463 0.027407758 -0.118495226 -0.003687363
000040 22 6d aa 3b fc 70 c8 3d 3a 8f 94 bd 49 00 19 bd
       0.005200998 0.09787175 -0.07253881 -0.037353788
000050 9d de 08 be 60 b7 79 3d ca 46 b1 bd 3a 04 91 bd
       -0.1336617 0.060965896 -0.0865608 -0.07080884
000060 06 91 cd 3d f0 42 d7 3c de 2f c6 3d d2 17 ed bc
       0.10037427 0.026277035 0.09677099 -0.028942022
000070 86 1a ac bc 84 fb 90 3d 41 1e 50 bc 7a 7b bc bd
       -0.021008741 0.07079223 -0.012702526 -0.09203239
000080 8e e4 ca 3d 7f 2a 14 3d 43 12 15 bd dd 57 d1 bd
       0.099068746 0.03617334 -0.03639437 -0.10221837
000090 00 60 59 3d 05 13 c0 3d da e9 ad bd 94 fc 9b bd
       0.05307007 0.09378628 -0.08491869 -0.07616535
0000a0 14 44 98 bd 30 ef 8d bd 12 2b d9 bd 9a 8e 65 3d
       -0.0743486 -0.06930387 -0.10603918 0.0560442
0000b0 50 c8 e6 bd 9c 8b 5b 3d 60 83 a7 bd 88 16 60 3d
       -0.11268675 0.05359994 -0.08179355 0.054708987
0000c0 f8 47 8e 3d b8 b2 9a bc 33 de 4f 3d 62 53 93 3d
       0.06947321 -0.018884048 0.050749015 0.071936384
0000d0 6c 01 3c 3d 05 05 b9 bd 0a 38 95 3d 20 f0 a1 b9
       0.045899794 -0.090341605 0.07286079 -0.0003088722
0000e0 aa 2c b1 bd f1 6a ae bd c2 0a b1 3d b2 7d dc bd
       -0.08651097 -0.08516491 0.0864463 -0.10766162
0000f0 d7 eb 8c bc 36 93 c6 3b f1 db a7 3d 60 13 a1 bc
       -0.017202301 0.0060600294 0.08196247 -0.019662559
000100 86 40 d8 bc 9b f7 7d 3b a2 a9 84 3d c8 b5 51 3d
       -0.026397955 0.003875232 0.064776674 0.05119875
000110 e2 54 a0 3d 86 5f 4b bd 41 09 a3 bd 06 7d 9a 3d
       0.0782869 -0.049651645 -0.079607494 0.075433776
000120 e0 34 fd bc 4c e5 2a 3d 67 cf 88 3c a8 b9 04 3d
       -0.030909002 0.04172258 0.01670046 0.032403618
000130 6a e4 aa bd b8 0a af bc 1f 91 ca 3d 2e be 1d 3d
       -0.08344348 -0.021367416 0.09890961 0.038511448
000140 d7 1b 4e 3c cc 4e 3b 3d 48 58 81 bd bd fe e5 ba
       0.01257988 0.045729443 -0.063156664 -0.0017547231
000150 e7 14 ce 3c 86 62 c8 bd d3 70 a7 3d 6b 34 0e 3e
       0.025156451 -0.09784417 0.081758164 0.13887183
000160 fa 84 f1 3d 30 d9 a5 3c 13 a6 7b bd 63 b1 62 bd
       0.117929414 0.020245165 -0.061437678 -0.05534495
000170 73 e6 b2 3d 9d 4e 8c bd b0 4d 0a 3e db 05 25 3d
       0.08735361 -0.06850932 0.13506198 0.040288787
000180 ee 3d ab bd 8a a3 c3 3d 72 24 2c 3d ae cf f7 bb
       -0.083614215 0.09552677 0.042026944 -0.007562599
000190 70 df 1c 3c 3e fe ec 3d 82 61 9d 3c 9a be a2 bc
       0.009574756 0.1157193 0.019211534 -0.019866277
0001a0 34 8e e9 bd 7c 8e 89 bd ae b0 cb 3d 29 53 0a 3e
       -0.11404076 -0.0671663 0.09945808 0.13508286
0001b0 50 21 21 3d c0 64 33 3c c2 ac 9a 3d df 7d 04 3e
       0.03933841 0.010949314 0.07552482 0.12938641
0001c0 42 1f cf 3d 82 33 65 bd a3 a0 df 3d f4 d1 a9 bb
       0.10113384 -0.055957325 0.10919311 -0.005182499
0001d0 57 f1 61 3c 06 6c 82 3d a1 63 fa 3d 20 d1 c2 3b
       0.01379045 0.0636826 0.12226034 0.00594534
0001e0 f8 b9 ee 3d bf 8f b7 bd e9 74 07 3d 0a 3d a7 bd
       0.116565645 -0.08962964 0.03307048 -0.08165939
0001f0 70 f9 93 bd c7 40 70 bc ee e2 2c 3d 58 80 11 3d
       -0.07225311 -0.014663882 0.042208605 0.03552279
000200 80 ba 3f 3c 49 07 9a bd 66 4a be bd 26 2c e3 3d
       0.01170218 -0.07520921 -0.09291534 0.11092405
000210 56 8f ea bd 5f 8f bf bd fb 87 ff 3d fb 84 b2 bb
       -0.114531204 -0.09353518 0.12477108 -0.0054479814
000220 60 84 4c 3b 16 a8 a4 3d b7 99 61 3d c3 58 c7 3d
       0.0031206831 0.08039872 0.055078235 0.09733727
000230 9b f1 4c bd b9 f5 cc bd 5a 1e fe 3d 9e f1 dc bd
       -0.0500351 -0.100078054 0.12408133 -0.10788272
000240 0b 09 ad 3c 92 51 b3 bd ef f7 9e 3d 80 81 c5 3c
       0.021122476 -0.08755793 0.07762133 0.024109602
000250 63 bf 7f bd 57 16 e4 3d 03 f1 e6 bd c0 d8 bd 3b
       -0.06243838 0.111370735 -0.11276438 0.005793661
000260 04 1c 50 3d 10 32 4c bd 1d 6b 2b bc 63 f7 41 3c
       0.050807968 -0.04985243 -0.0104625495 0.011838767
000270 65 92 78 bc 75 99 89 3d 8c 3c 0c 3d 82 98 0a bd
       -0.015171622 0.06718723 0.03423743 -0.03383685
000280 12 37 85 3d 9d 62 d5 bb 7c a9 93 bd d4 57 44 bd
       0.065046445 -0.0065119998 -0.07210061 -0.047935322
000290 42 ac 8b 3d 43 5e b5 3c fe a1 ad 3d e9 1b 30 3d
       0.06819965 0.022139674 0.08478163 0.042995367
0002a0 52 bc db bd a0 fa e7 bb ac 8e 01 3d 8b 9a 05 3e
       -0.107292786 -0.0070794374 0.031630203 0.13047235
0002b0 08 3d d5 bd ac fc 7e 3d 90 c6 3b 3c e0 c1 70 3d
       -0.104120314 0.062252685 0.011460915 0.058778644
0002c0 0a fc 03 3e ed 4c a7 bc dd 84 f5 bc 80 23 29 3d
       0.12889114 -0.020422423 -0.02997058 0.04129362
0002d0 ba d3 38 3c bb ca a4 3c 88 a8 13 3d 3c 08 89 3d
       0.011280948 0.0201162 0.036049396 0.06691024
0002e0 d6 e3 c6 3d e1 13 ba 3d ed e3 fd 3d 56 ed 92 bd
       0.09711425 0.09085823 0.12396989 -0.071741745
0002f0 f9 bb 45 3d b4 38 8a bd 76 e9 63 3d a8 dc 8a 3c
       0.048274968 -0.067490965 0.055642568 0.01695092
000300 ca 02 60 bc 18 9b 0f bd f0 07 01 3d c7 4c fa bc
       -0.01367254 -0.03506002 0.03150171 -0.030554188
000310 c8 65 e5 3d 2b de be 3d 39 49 c4 bc bc 05 c0 bd
       0.11201054 0.09319719 -0.023960697 -0.09376094
000320 22 f0 80 bd 6e 4c 93 3d 97 82 e5 3d 5f 16 58 bd
       -0.06295802 0.07192312 0.11206549 -0.05275571
000330 47 c7 04 3e d4 b6 d9 bd 71 db 80 bd 21 1c eb 3d
       0.12966643 -0.10630575 -0.06291855 0.114799745
000340 d8 d9 b0 bd 42 a5 ec 3d 36 ba 43 3c 08 02 17 bd
       -0.086353004 0.11554958 0.011946252 -0.03686717
000350 83 7a 55 3d 46 76 07 3d aa da 0f 3e 49 fe 94 bd
       0.05211879 0.03307178 0.14048257 -0.072750635
000360 34 a4 1a 3d 04 a0 ea bd f9 2d a0 bd a6 3f d1 bd
       0.037754253 -0.11456302 -0.078212686 -0.10217218
000370 ed 61 bb 3c c5 8c f8 3c 2d 58 ee bc 8f 60 8a bd
       0.022873843 0.030340562 -0.02909478 -0.06756698
000380 ca 61 0c 3e 43 8f 3f bd 69 1a ef 3d 75 65 5b 3d
       0.13709179 -0.046767484 0.11674959 0.053563554
000390 78 2f ed bc 7f cb 19 3d b4 dd 1f bb 88 61 85 3d
       -0.028953299 0.037547585 -0.002439362 0.06512743
0003a0 c2 ba 82 bd 8b d4 6c 3d 48 8c bf bc f2 be a7 3d
       -0.063832775 0.057819884 -0.023382321 0.08190717
0003b0 c0 21 99 bc fc 00 af bd 28 6e e3 3c a0 13 b0 3d
       -0.018692851 -0.0854511 0.027762488 0.08597493
0003c0 00 3f 9a 3d 0c 01 2e bd a4 6b 95 bd 41 8e 2e bd
       0.075315475 -0.042481467 -0.072959214 -0.042616133
0003d0 0d d7 d5 bd c1 ef b0 3d 81 f6 12 3d 7e 0c c0 bd
       -0.10441408 0.086394794 0.035879616 -0.09377383
0003e0 fc 09 a0 3d 39 2a b1 3d bf 2c 55 bd a5 96 91 bd
       0.07814404 0.086506315 -0.052044626 -0.07108811
0003f0 5b 5e cf bc 14 18 d3 3d 08 87 41 bd 40 84 b7 3d
       -0.025313547 0.10307327 -0.047247916 0.089607716
